nicla_deploy/trained.tflite (tflite, 85512 bytes, 28 tensors)

sequential/dense/MatMul i1 [2, 102] scale=0.0033757344 zero_point=0
0.1856654 0.09114483 -0.07764189 -0.41859108 0.08439336 0.09114483 0.0978963 0.15528378
-0.2531801 0.0 0.06413896 -0.04388455 0.1181507 -0.0877691 0.06076322 0.020254407
0.06751469 -0.04388455 -0.1080235 0.18904112 -0.07089043 0.17216246 -0.016878672 0.07089043
0.10464777 0.040508814 0.1080235 -0.2363014 -0.016878672 -0.18904112 -0.06076322 -0.24980435
0.06076322 0.1181507 0.06751469 -0.03038161 -0.12827791 0.08101763 -0.04388455 -0.19916832
-0.04726028 0.03713308 -0.2734345 0.42871827 -0.41859108 -0.06751469 -0.033757344 0.36795506
-0.19241686 0.06413896 -0.03038161 0.2363014 -0.17216246 -0.2936889 -0.040508814 0.013502938
-0.22954994 -0.13840511 -0.34770066 -0.010127204 0.1080235 0.06076322 -0.07426616 -0.04388455
0.08439336 -0.15190805 0.24980435 0.04388455 0.13165364 0.16541098 -0.11139923 -0.1957926
-0.16203526 -0.1856654 0.3240705 -0.17216246 0.14178085 0.08439336 -0.09114483 -0.10464777
-0.07764189 0.040508814 0.28018597 0.09114483 -0.17216246 -0.013502938 -0.2734345 0.10127203
0.21267127 0.04726028 0.15190805 -0.1755382 0.25993156 -0.07426616 -0.07089043 -0.09114483
-0.10127203 -0.12152644 0.21267127 0.1856654 -0.11139923 -0.14178085 -0.04388455 -0.31056756
-0.14515658 0.32744625 -0.0033757344 -0.03713308 0.07426616 -0.2936889 0.10127203 -0.06076322
0.020254407 -0.1080235 -0.12152644 0.1181507 -0.050636016 -0.20254406 -0.124902174 0.3510764
0.010127204 0.13165364 0.24980435 0.16541098 0.18228966 0.050636016 0.13840511 -0.07426616
-0.02363014 0.13165364 -0.36457932 0.25993156 -0.19241686 0.22279847 -0.0033757344 -0.03713308
0.010127204 0.020254407 0.19241686 0.09114483 -0.15190805 0.07764189 0.12827791 0.050636016
0.39833665 -0.17891392 0.04388455 -0.3544521 -0.34770066 -0.14178085 0.42871827 0.15865952
-0.20929554 0.06751469 0.24980435 0.17891392 0.1856654 -0.14853232 0.1856654 0.050636016
0.04388455 -0.14178085 -0.006751469 0.04388455 0.16541098 -0.32744625 0.16878672 0.11477497
-0.124902174 0.14853232 -0.12827791 0.07764189 -0.050636016 -0.10127203 0.040508814 0.35782784
-0.027005875 0.15528378 0.006751469 0.02363014 -0.0033757344 0.12827791 0.14178085 -0.2734345
0.04726028 -0.04726028 0.06413896 -0.14515658 0.04726028 0.14853232 -0.020254407 0.07426616
-0.040508814 0.13840511 -0.15190805 -0.05401175 0.23967715 -0.13165364 -0.09452056 -0.016878672
0.1755382 0.1856654 0.12827791 0.216047
00000000: 371b e984 191b 1d2e b500 13f3 23e6 1206
00000010: 14f3 e038 eb33 fb15 1f0c 20ba fbc8 eeb6
00000020: 1223 14f7 da18 f3c5 f20b af7f 84ec f66d
00000030: c713 f746 cda9 f404 bcd7 99fd 2012 eaf3
00000040: 19d3 4a0d 2731 dfc6 d0c9 60cd 2a19 e5e1
00000050: e90c 531b cdfc af1e 3f0e 2dcc 4dea ebe5
00000060: e2dc 3f37 dfd6 f3a4 d561 fff5 16a9 1eee
00000070: 06e0 dc23 f1c4 db68 0327 4a31 360f 29ea
00000080: f927 944d c742 fff5 0306 391b d317 260f
00000090: 76cb 0d97 99d6 7f2f c214 4a35 37d4 370f
000000a0: 0dd6 fe0d 319f 3222 db2c da17 f1e2 0c6a
000000b0: f82e 0207 ff26 2aaf 0ef2 13d5 0e2c fa16
000000c0: f429 d3f0 47d9 e4fb 3437 2640

sequential/model/conv_pw_13/Conv2D i1 [102, 1, 1, 102]
3 -10 1 27 22 -3 6 52
53 23 10 29 127 77 5 58
41 -22 -6 33 4 57 26 -26
45 12 13 -7 62 -28 -16 -14
7 -59 -63 -17 5 -41 -39 15
-14 -25 22 -15 58 -8 18 -25
4 -27 -68 -6 29 18 -19 19
-34 74 22 -4 26 24 -3 14
33 -35 -36 -17 12 -38 -10 -24
-1 -44 49 -50 -39 10 -60 -8
-57 7 18 -16 23 3 15 -36
22 85 20 31 -56 -30 4 43
-19 -1 -11 48 21 -47 56 -92
35 -31 36 4 -69 16 -81 -24
28 -39 -39 117 -86 50 21 3
0 -25 42 -1 56 -11 60 -8
25 79 -28 54 15 -23 -72 11
-39 -49 40 -42 83 -69 -9 -50
44 67 -54 -41 7 41 68 -67
71 -12 58 -96 -26 -127 83 43
16 84 -40 -26 46 -57 -61 24
1 -72 -28 40 -1 96 46 20
87 -56 -4 20 -39 -64 -3 4
40 -30 23 15 109 -40 88 38
16 21 -44 67 15 -19 0 -41
-58 -47 45 -120 -9 -26 0 3
-75 0 -40 -99 -31 9 38 15
-86 14 16 -41 -76 -49 -32 11
-24 60 5 -111 -27 -6 108 -31
10 -92 71 -51 -61 -41 65 34
6 3 -23 6 111 -28 69 35
-71 -7 17 47 -4 -43 49 38
00000000: 03f6 011b 16fd 0634 3517 0a1d 7f4d 053a
00000010: 29ea fa21 0439 1ae6 2d0c 0df9 3ee4 f0f2
00000020: 07c5 c1ef 05d7 d90f f2e7 16f1 3af8 12e7
00000030: 04e5 bcfa 1d12 ed13 de4a 16fc 1a18 fd0e
00000040: 21dd dcef 0cda f6e8 ffd4 31ce d90a c4f8
00000050: c707 12f0 1703 0fdc 1655 141f c8e2 042b
00000060: edff f530 15d1 38a4 23e1 2404 bb10 afe8
00000070: 1cd9 d975 aa32 1503 00e7 2aff 38f5 3cf8
00000080: 194f e436 0fe9 b80b d9cf 28d6 53bb f7ce
00000090: 2c43 cad7 0729 44bd 47f4 3aa0 e681 532b
000000a0: 1054 d8e6 2ec7 c318 01b8 e428 ff60 2e14
000000b0: 57c8 fc14 d9c0 fd04 28e2 170f 6dd8 5826
000000c0: 1015 d443 0fed 00d7 c6d1 2d88 f7e6 0003
000000d0: b500 d89d e109 260f aa0e 10d7 b4cf e00b
000000e0: e83c 0591 e5fa 6ce1 0aa4 47cd c3d7 4122
000000f0: 0603 e906 6fe4 4523 b9f9 112f fcd5 3126

sequential/model/conv_dw_13_bn/FusedBatchNormV3;sequential/model/conv_dw_13/depthwise;sequential/model/conv_pw_13/Conv2D i1 [1, 3, 3, 102]
-127 -49 -118 57 51 -45 -99 -121
40 -109 62 -60 40 -22 10 43
46 -61 64 -83 -117 -110 -66 -28
42 54 -52 -93 -43 7 16 -7
37 -70 -127 39 44 55 -123 -66
-34 15 -99 -60 -64 -31 -32 -127
-14 -127 -87 -127 -23 70 -31 -90
-50 -21 17 43 -73 -52 63 -22
-102 -115 82 -62 -125 -127 31 88
45 52 105 -71 8 -119 10 58
-66 -97 13 -102 -110 55 -99 29
56 38 -23 -84 5 71 73 81
122 -64 -111 -127 -127 72 -81 -57
-127 127 127 -52 -103 -104 127 -88
13 -31 73 87 74 42 127 81
127 -107 -127 -127 -127 -98 69 44
-95 -61 -127 -127 92 117 67 -125
-102 22 127 127 34 -102 83 -12
-125 -125 -127 -127 -34 41 47 -117
-127 -78 -127 127 -85 -50 -60 -117
81 58 -122 41 64 -62 -91 -97
127 95 -93 -70 37 83 117 21
124 -69 59 -127 -71 65 -83 -121
28 127 -84 101 -39 6 127 95
-13 14 38 109 28 80 48 -127
-127 -112 -80 66 -98 -49 -120 38
72 -50 -106 -127 19 -127 -26 -72
43 -35 8 49 -2 -69 36 -50
-123 -101 -53 -27 40 39 -38 -77
-77 4 -51 -49 51 -84 -110 40
50 47 -76 -82 9 0 -107 -48
-75 -34 -26 87 0 -109 -88 -114
00000000: 81cf 8a39 33d3 9d87 2893 3ec4 28ea 0a2b
00000010: 2ec3 40ad 8b92 bee4 2a36 cca3 d507 10f9
00000020: 25ba 8127 2c37 85be de0f 9dc4 c0e1 e081
00000030: f281 a981 e946 e1a6 ceeb 112b b7cc 3fea
00000040: 9a8d 52c2 8381 1f58 2d34 69b9 0889 0a3a
00000050: be9f 0d9a 9237 9d1d 3826 e9ac 0547 4951
00000060: 7ac0 9181 8148 afc7 817f 7fcc 9998 7fa8
00000070: 0de1 4957 4a2a 7f51 7f95 8181 819e 452c
00000080: a1c3 8181 5c75 4383 9a16 7f7f 229a 53f4
00000090: 8383 8181 de29 2f8b 81b2 817f abce c48b
000000a0: 513a 8629 40c2 a59f 7f5f a3ba 2553 7515
000000b0: 7cbb 3b81 b941 ad87 1c7f ac65 d906 7f5f
000000c0: f30e 266d 1c50 3081 8190 b042 9ecf 8826
000000d0: 48ce 9681 1381 e6b8 2bdd 0831 febb 24ce
000000e0: 859b cbe5 2827 dab3 b304 cdcf 33ac 9228
000000f0: 322f b4ae 0900 95d0 b5de e657 0093 a88e

sequential/model/conv_pw_12/Conv2D i1 [102, 1, 1, 51]
83 -56 127 1 -8 -43 -44 2
-71 -26 24 -98 11 12 -28 28
43 -104 -14 -23 25 115 51 -102
20 63 -82 -31 38 -66 -55 -53
-17 -76 -47 -102 -50 61 -85 -33
68 -88 49 -2 76 -36 -70 -82
-43 -42 61 -37 -21 89 -31 -62
-10 11 20 72 22 -30 -16 -22
-45 -25 -89 -45 -29 27 33 15
35 55 -79 -27 49 -4 86 -108
15 -18 27 -99 -11 19 -25 -20
-8 -25 -1 127 -18 78 -13 -25
39 -62 -5 43 40 1 -48 2
-20 -62 45 -26 -12 -27 -41 -17
-70 -70 -3 35 6 -7 -35 -53
-40 -13 -7 127 4 -1 -72 27
-43 -101 -26 -24 -17 24 67 58
28 14 8 9 32 27 75 48
-79 20 6 49 -2 6 -84 31
-67 -51 76 4 -35 -127 -35 20
-66 -31 46 -16 63 -8 -22 -3
-79 -12 12 27 -16 -12 -20 -41
-18 -79 -49 -120 -4 32 -19 -7
31 55 73 27 -23 55 32 -59
16 -9 -33 -22 6 44 -4 -29
11 -31 9 16 -119 62 41 -50
-30 -44 -8 21 -48 -19 23 76
40 38 73 -44 9 11 83 127
13 67 -8 -91 -110 -80 -7 -69
34 -72 49 -105 -20 30 25 19
-20 -85 0 35 29 80 -77 -25
-14 5 -65 58 -28 -49 -108 8
00000000: 53c8 7f01 f8d5 d402 b9e6 189e 0b0c e41c
00000010: 2b98 f2e9 1973 339a 143f aee1 26be c9cb
00000020: efb4 d19a ce3d abdf 44a8 31fe 4cdc baae
00000030: d5d6 3ddb eb59 e1c2 f60b 1448 16e2 f0ea
00000040: d3e7 a7d3 e31b 210f 2337 b1e5 31fc 5694
00000050: 0fee 1b9d f513 e7ec f8e7 ff7f ee4e f3e7
00000060: 27c2 fb2b 2801 d002 ecc2 2de6 f4e5 d7ef
00000070: baba fd23 06f9 ddcb d8f3 f97f 04ff b81b
00000080: d59b e6e8 ef18 433a 1c0e 0809 201b 4b30
00000090: b114 0631 fe06 ac1f bdcd 4c04 dd81 dd14
000000a0: bee1 2ef0 3ff8 eafd b1f4 0c1b f0f4 ecd7
000000b0: eeb1 cf88 fc20 edf9 1f37 491b e937 20c5
000000c0: 10f7 dfea 062c fce3 0be1 0910 893e 29ce
000000d0: e2d4 f815 d0ed 174c 2826 49d4 090b 537f
000000e0: 0d43 f8a5 92b0 f9bb 22b8 3197 ec1e 1913
000000f0: ecab 0023 1d50 b3e7 f205 bf3a e4cf 9408

sequential/model/conv_dw_12_bn/FusedBatchNormV3;sequential/model/conv_dw_12/depthwise i1 [1, 3, 3, 51]
-124 -92 -29 80 -102 -127 -127 -105
-14 53 119 -111 -127 -101 -127 35
81 115 118 0 77 -16 48 -34
110 -57 -52 -38 82 -73 11 46
48 -127 94 -95 127 -40 -72 -127
61 85 -93 -86 -31 -28 56 119
-120 -9 127 -127 -103 36 77 -118
-115 -103 -98 3 105 127 -115 -99
-127 -120 6 79 127 127 6 93
-14 51 -51 127 -55 -63 -53 79
-90 -8 54 72 -109 127 -127 110
-12 -53 -117 68 81 -97 -127 -58
-37 84 127 -117 -21 106 -31 -14
-61 -5 -40 -27 -31 -18 -29 55
22 -58 -9 3 3 -20 50 2
-26 10 -10 -29 -1 -19 -1 -3
-15 -13 18 -19 -23 26 20 -11
-9 -26 6 -21 -27 -95 57 29
-36 -61 -2 -17 -1 -16 -32 5
7 -60 -127 52 126 -87 -100 -45
-127 93 99 115 -122 -120 -61 -104
86 113 119 87 104 127 55 127
-127 93 -127 -99 68 114 -98 46
117 118 -31 72 -39 -30 63 -40
-127 115 127 -127 -53 61 76 115
119 -119 -94 -26 -66 -97 127 127
-127 -93 -56 -120 127 127 123 -118
-127 -99 -118 122 127 106 106 127
122 70 106 -106 98 -124 -127 64
127 -105 61 127 127 -43 95 -31
8 79 -14 -75 127 121 -101 -46
35 105 127 115 -127 -127 -46 11
00000000: 84a4 e350 9a81 8197 f235 7791 819b 8123
00000010: 5173 7600 4df0 30de 6ec7 ccda 52b7 0b2e
00000020: 3081 5ea1 7fd8 b881 3d55 a3aa e1e4 3877
00000030: 88f7 7f81 9924 4d8a 8d99 9e03 697f 8d9d
00000040: 8188 064f 7f7f 065d f233 cd7f c9c1 cb4f
00000050: a6f8 3648 937f 816e f4cb 8b44 519f 81c6
00000060: db54 7f8b eb6a e1f2 c3fb d8e5 e1ee e337
00000070: 16c6 f703 03ec 3202 e60a f6e3 ffed fffd
00000080: f1f3 12ed e91a 14f5 f7e6 06eb e5a1 391d
00000090: dcc3 feef fff0 e005 07c4 8134 7ea9 9cd3
000000a0: 815d 6373 8688 c398 5671 7757 687f 377f
000000b0: 815d 819d 4472 9e2e 7576 e148 d9e2 3fd8
000000c0: 8173 7f81 cb3d 4c73 7789 a2e6 be9f 7f7f
000000d0: 81a3 c888 7f7f 7b8a 819d 8a7a 7f6a 6a7f
000000e0: 7a46 6a96 6284 8140 7f97 3d7f 7fd5 5fe1
000000f0: 084f f2b5 7f79 9bd2 2369 7f73 8181 d20b

sequential/model/conv_pw_11/Conv2D i1 [51, 1, 1, 51]
-24 20 -9 -23 18 -29 -24 35
8 14 9 -3 2 -6 21 -93
-26 13 -58 -36 24 43 -9 23
25 63 -40 99 -9 127 39 -1
37 -58 -4 -19 16 -25 -11 -41
23 -7 -38 21 38 55 62 13
26 -11 88 19 89 15 25 27
-121 43 -127 39 32 17 32 -45
5 -64 110 -52 -15 28 76 78
-59 -87 -9 -46 -67 85 25 -68
-97 69 -37 -75 49 -71 4 -84
-42 70 -68 32 28 11 -11 12
-52 83 9 19 -102 -7 1 -6
-50 56 -118 20 62 41 -43 -8
17 -13 -33 -41 11 5 -3 -17
-14 45 93 -46 26 0 -43 -127
-32 -9 -60 13 8 12 -62 0
-11 17 -27 111 -27 10 -31 -88
6 28 30 1 -98 -62 69 12
15 -127 -3 -16 -29 43 -54 51
-54 -91 5 -23 48 -76 -20 -3
-2 27 -44 -1 66 -12 25 -3
83 5 -7 59 -3 14 -25 9
-55 51 15 39 -71 -42 4 62
73 -18 -11 -40 30 10 -20 26
114 10 20 29 44 66 -61 40
-11 10 -52 5 -61 61 54 1
105 -62 23 -95 1 -101 26 54
-127 -39 67 -3 -29 -20 -62 -21
-21 3 -69 44 2 83 -15 15
-2 -36 28 -8 56 74 -3 -4
13 -31 36 -55 31 -46 -39 42
00000000: e814 f7e9 12e3 e823 080e 09fd 02fa 15a3
00000010: e60d c6dc 182b f717 193f d863 f77f 27ff
00000020: 25c6 fced 10e7 f5d7 17f9 da15 2637 3e0d
00000030: 1af5 5813 590f 191b 872b 8127 2011 20d3
00000040: 05c0 6ecc f11c 4c4e c5a9 f7d2 bd55 19bc
00000050: 9f45 dbb5 31b9 04ac d646 bc20 1c0b f50c
00000060: cc53 0913 9af9 01fa ce38 8a14 3e29 d5f8
00000070: 11f3 dfd7 0b05 fdef f22d 5dd2 1a00 d581
00000080: e0f7 c40d 080c c200 f511 e56f e50a e1a8
00000090: 061c 1e01 9ec2 450c 0f81 fdf0 e32b ca33
000000a0: caa5 05e9 30b4 ecfd fe1b d4ff 42f4 19fd
000000b0: 5305 f93b fd0e e709 c933 0f27 b9d6 043e
000000c0: 49ee f5d8 1e0a ec1a 720a 141d 2c42 c328
000000d0: f50a cc05 c33d 3601 69c2 17a1 019b 1a36
000000e0: 81d9 43fd e3ec c2eb eb03 bb2c 0253 f10f
000000f0: fedc 1cf8 384a fdfc 0de1 24c9 1fd2 d92a

sequential/model/conv_dw_11_bn/FusedBatchNormV3;sequential/model/conv_dw_11/depthwise;sequential/model/conv_dw_12/depthwise i1 [1, 3, 3, 51]
-2 49 21 -127 53 31 24 -120
0 25 34 -30 -114 50 -42 -37
5 1 -110 21 3 -47 -61 58
-31 -127 -9 -92 -9 -94 -127 -94
-67 32 79 24 30 1 11 93
-90 -66 14 -45 -52 -51 -127 -127
58 45 -53 -29 88 27 49 -20
74 115 -127 -2 29 127 8 -127
30 -66 -56 93 17 -41 47 20
-55 -127 64 24 -110 -98 106 28
-127 -23 -88 -127 53 52 81 -127
2 20 -3 -127 -127 127 -58 -70
-2 -114 -118 89 127 -60 -18 40
13 -125 46 -6 11 -95 31 6
-15 -17 -80 34 -33 -43 -11 18
-127 -34 -9 -55 -45 23 -25 -76
-22 -65 -11 -79 -97 -59 -55 7
55 -2 17 -12 -10 127 -34 6
17 -16 -34 -69 -111 -97 -43 18
-12 -6 111 33 -100 -20 48 -71
-40 -46 -46 -10 35 -80 90 12
-18 118 7 -68 -1 49 -127 -126
37 45 -69 -103 25 0 -93 -39
-76 -39 0 -65 57 -88 -42 5
32 66 70 2 -54 -60 14 -41
-4 52 37 -23 104 109 127 36
24 127 103 -98 -127 80 58 22
-79 127 -127 -23 127 127 -8 17
127 -81 -10 127 127 -95 -90 127
7 -29 41 -127 -84 43 11 127
-116 -127 127 -26 51 91 -11 -127
-127 81 -98 -35 127 56 -127 10
00000000: fe31 1581 351f 1888 0019 22e2 8e32 d6db
00000010: 0501 9215 03d1 c33a e181 f7a4 f7a2 81a2
00000020: bd20 4f18 1e01 0b5d a6be 0ed3 cccd 8181
00000030: 3a2d cbe3 581b 31ec 4a73 81fe 1d7f 0881
00000040: 1ebe c85d 11d7 2f14 c981 4018 929e 6a1c
00000050: 81e9 a881 3534 5181 0214 fd81 817f c6ba
00000060: fe8e 8a59 7fc4 ee28 0d83 2efa 0ba1 1f06
00000070: f1ef b022 dfd5 f512 81de f7c9 d317 e7b4
00000080: eabf f5b1 9fc5 c907 37fe 11f4 f67f de06
00000090: 11f0 debb 919f d512 f4fa 6f21 9cec 30b9
000000a0: d8d2 d2f6 23b0 5a0c ee76 07bc ff31 8182
000000b0: 252d bb99 1900 a3d9 b4d9 00bf 39a8 d605
000000c0: 2042 4602 cac4 0ed7 fc34 25e9 686d 7f24
000000d0: 187f 679e 8150 3a16 b17f 81e9 7f7f f811
000000e0: 7faf f67f 7fa1 a67f 07e3 2981 ac2b 0b7f
000000f0: 8c81 7fe6 335b f581 8151 9edd 7f38 810a

sequential/model/conv_pw_10/Conv2D i1 [51, 1, 1, 51]
23 5 127 58 6 -58 17 -16
-2 -27 71 27 20 -1 53 4
73 8 -1 47 -24 -20 -26 12
-84 33 48 2 3 11 -18 29
-7 24 -13 -40 26 8 -1 -5
-45 -10 34 -2 -46 -15 -37 0
-6 17 13 37 14 7 -42 3
8 -25 -51 -41 30 52 6 48
-37 31 -60 17 16 -28 -80 3
-20 127 -32 54 -45 7 41 34
-50 27 64 74 8 -40 -21 24
32 4 -17 -47 31 -16 -66 -47
29 21 -18 10 -42 -33 66 82
-4 27 19 2 127 15 -58 -42
44 -10 -16 34 29 -5 -4 64
-4 -76 -6 -2 -19 40 73 -28
121 106 -60 -16 15 -29 -38 -14
-78 -5 -25 63 58 126 47 18
39 -29 -25 -25 29 -26 -43 45
-55 -5 27 1 4 -12 -66 21
1 -53 127 -8 28 -56 -11 3
6 1 24 42 14 13 -27 7
-19 8 -3 69 38 28 30 -6
71 21 -31 -14 -22 -22 31 40
-17 72 -17 59 -16 -65 5 10
9 6 -22 2 -24 -17 -35 -49
-20 -57 -57 14 -49 -3 -2 -26
26 19 29 42 28 9 -20 63
-19 -32 -9 -7 23 -36 53 12
20 58 -6 127 -7 15 21 10
-6 18 -3 55 -7 -30 -29 9
-10 9 -7 -2 9 -16 7 -7
00000000: 1705 7f3a 06c6 11f0 fee5 471b 14ff 3504
00000010: 4908 ff2f e8ec e60c ac21 3002 030b ee1d
00000020: f918 f3d8 1a08 fffb d3f6 22fe d2f1 db00
00000030: fa11 0d25 0e07 d603 08e7 cdd7 1e34 0630
00000040: db1f c411 10e4 b003 ec7f e036 d307 2922
00000050: ce1b 404a 08d8 eb18 2004 efd1 1ff0 bed1
00000060: 1d15 ee0a d6df 4252 fc1b 1302 7f0f c6d6
00000070: 2cf6 f022 1dfb fc40 fcb4 fafe ed28 49e4
00000080: 796a c4f0 0fe3 daf2 b2fb e73f 3a7e 2f12
00000090: 27e3 e7e7 1de6 d52d c9fb 1b01 04f4 be15
000000a0: 01cb 7ff8 1cc8 f503 0601 182a 0e0d e507
000000b0: ed08 fd45 261c 1efa 4715 e1f2 eaea 1f28
000000c0: ef48 ef3b f0bf 050a 0906 ea02 e8ef ddcf
000000d0: ecc7 c70e cffd fee6 1a13 1d2a 1c09 ec3f
000000e0: ede0 f7f9 17dc 350c 143a fa7f f90f 150a
000000f0: fa12 fd37 f9e2 e309 f609 f9fe 09f0 07f9

sequential/model/conv_dw_10_bn/FusedBatchNormV3;sequential/model/conv_dw_10/depthwise;sequential/model/conv_dw_12/depthwise i1 [1, 3, 3, 51]
-19 93 -24 3 15 11 -19 3
76 14 2 11 -12 13 42 73
-25 -24 -40 -36 -21 22 -7 -6
39 12 55 -55 20 -13 -7 -3
-23 53 -55 -42 -37 -16 -3 -31
-6 -21 2 -24 -51 3 -21 -31
-3 -51 -15 127 -32 127 127 -127
22 9 1 41 70 20 -127 40
21 127 67 46 115 -17 26 -75
43 21 46 127 -124 11 -11 -89
77 -18 127 -22 -84 127 -28 48
-12 -71 75 68 -127 42 -30 -11
108 127 -106 6 52 19 66 30
7 68 -52 9 -31 -5 127 44
46 -65 -1 31 3 127 26 25
-30 4 -127 22 20 21 46 -46
66 -40 -1 63 -3 7 -33 17
-55 -88 6 -26 -47 21 2 -96
-71 -58 -96 16 54 -79 29 -17
-15 -20 26 4 -12 -29 -1 -46
-5 -30 -26 -16 8 12 17 -21
29 -16 -1 -5 8 -65 -43 -14
-13 -43 -1 -5 7 3 55 -17
-32 -10 -108 -7 53 -17 -43 21
-8 21 -28 97 -43 -21 68 13
-76 -29 -11 -3 -13 -114 100 112
-68 73 127 -127 -25 64 94 -72
127 127 33 54 127 127 127 127
-27 127 127 24 39 -82 -19 67
-111 30 127 0 127 -75 122 -127
127 127 -89 127 127 96 127 -127
-40 119 112 -41 127 127 127 -5
00000000: ed5d e803 0f0b ed03 4c0e 020b f40d 2a49
00000010: e7e8 d8dc eb16 f9fa 270c 37c9 14f3 f9fd
00000020: e935 c9d6 dbf0 fde1 faeb 02e8 cd03 ebe1
00000030: fdcd f17f e07f 7f81 1609 0129 4614 8128
00000040: 157f 432e 73ef 1ab5 2b15 2e7f 840b f5a7
00000050: 4dee 7fea ac7f e430 f4b9 4b44 812a e2f5
00000060: 6c7f 9606 3413 421e 0744 cc09 e1fb 7f2c
00000070: 2ebf ff1f 037f 1a19 e204 8116 1415 2ed2
00000080: 42d8 ff3f fd07 df11 c9a8 06e6 d115 02a0
00000090: b9c6 a010 36b1 1def f1ec 1a04 f4e3 ffd2
000000a0: fbe2 e6f0 080c 11eb 1df0 fffb 08bf d5f2
000000b0: f3d5 fffb 0703 37ef e0f6 94f9 35ef d515
000000c0: f815 e461 d5eb 440d b4e3 f5fd f38e 6470
000000d0: bc49 7f81 e740 5eb8 7f7f 2136 7f7f 7f7f
000000e0: e57f 7f18 27ae ed43 911e 7f00 7fb5 7a81
000000f0: 7f7f a77f 7f60 7f81 d877 70d7 7f7f 7ffb

sequential/model/conv_pw_9/Conv2D i1 [51, 1, 1, 51]
-17 -42 -24 -11 27 23 55 22
13 -8 -114 83 -27 0 -40 28
-47 -43 125 -28 77 -53 8 -52
104 49 -58 26 -96 44 -36 5
-2 5 40 -5 20 26 56 -58
65 -8 21 30 -49 21 127 43
-105 -87 -54 -68 115 -127 -5 121
87 -16 -10 -57 85 86 45 -8
-67 20 24 -31 -13 8 -6 -86
-13 -100 -7 -58 48 -89 -20 -64
-59 57 -53 5 18 -3 -40 28
38 -72 -10 -21 -22 0 11 105
1 -87 25 57 118 -80 12 58
52 7 -127 40 21 17 10 -22
-14 -15 -41 -59 -38 -50 21 7
10 -55 -32 76 -21 -38 110 -38
-12 -46 -1 17 -34 -41 -18 23
-27 -10 105 -41 16 28 35 5
-29 18 14 25 114 -23 -10 -34
23 -11 -29 -17 40 53 27 127
-6 -26 -4 -3 -6 9 -16 0
2 35 3 27 -25 -6 33 3
-42 -9 -11 3 -17 -35 40 -4
-6 -5 -8 -20 6 -42 50 3
-31 8 -17 -33 21 -15 16 -25
13 -31 -41 38 -60 -60 -61 -11
-12 -5 87 58 65 -36 50 10
-25 20 82 13 -80 127 -64 -48
-33 114 16 23 19 -45 -77 19
-5 -21 15 28 19 -56 44 -22
76 -5 -43 -39 -15 10 -78 -10
83 25 -22 114 109 32 -83 -11
00000000: efd6 e8f5 1b17 3716 0df8 8e53 e500 d81c
00000010: d1d5 7de4 4dcb 08cc 6831 c61a a02c dc05
00000020: fe05 28fb 141a 38c6 41f8 151e cf15 7f2b
00000030: 97a9 cabc 7381 fb79 57f0 f6c7 5556 2df8
00000040: bd14 18e1 f308 faaa f39c f9c6 30a7 ecc0
00000050: c539 cb05 12fd d81c 26b8 f6eb ea00 0b69
00000060: 01a9 1939 76b0 0c3a 3407 8128 1511 0aea
00000070: f2f1 d7c5 dace 1507 0ac9 e04c ebda 6eda
00000080: f4d2 ff11 ded7 ee17 e5f6 69d7 101c 2305
00000090: e312 0e19 72e9 f6de 17f5 e3ef 2835 1b7f
000000a0: fae6 fcfd fa09 f000 0223 031b e7fa 2103
000000b0: d6f7 f503 efdd 28fc fafb f8ec 06d6 3203
000000c0: e108 efdf 15f1 10e7 0de1 d726 c4c4 c3f5
000000d0: f4fb 573a 41dc 320a e714 520d b07f c0d0
000000e0: df72 1017 13d3 b313 fbeb 0f1c 13c8 2cea
000000f0: 4cfb d5d9 f10a b2f6 5319 ea72 6d20 adf5

sequential/model/conv_dw_9_bn/FusedBatchNormV3;sequential/model/conv_dw_9/depthwise;sequential/model/conv_dw_12/depthwise i1 [1, 3, 3, 51]
40 99 37 64 -10 23 42 25
-127 -63 36 3 -18 -74 127 -119
6 42 30 44 -59 31 -58 60
-62 41 64 30 26 -97 -69 46
-69 3 -69 -44 -61 30 -36 -19
11 52 17 -6 -38 55 -74 9
42 23 44 27 127 61 84 -87
8 25 100 -29 -97 127 -127 -127
-70 14 -7 66 31 8 127 -48
71 -127 -33 -33 28 83 31 58
-103 -51 36 -87 32 -127 -31 -127
-33 -36 -24 71 61 41 89 -77
-94 -29 37 48 52 127 -38 41
-32 37 25 9 -33 -47 -89 2
-7 52 30 -62 66 -76 -27 -51
-16 -57 -27 -41 35 90 -42 -58
-25 -38 -38 -82 -10 12 3 -27
-17 -25 5 18 13 -12 4 9
-29 -50 -6 -20 -23 -9 -2 -1
-35 60 37 43 56 -75 20 35
127 -63 -77 15 -99 -97 -75 -26
-75 7 47 9 37 -91 44 -52
-35 25 54 38 23 58 -82 -78
42 -117 40 4 -54 -40 19 -22
-106 18 59 5 13 -81 18 63
-36 40 21 27 127 60 84 127
-127 -15 127 93 -16 -127 45 -95
-99 -127 -122 -114 127 127 127 76
-127 127 -100 -50 105 97 127 127
127 -127 -127 127 -123 127 -112 -127
-103 127 -127 -127 85 90 127 127
-127 70 127 127 127 127 85 -75
00000000: 2863 2540 f617 2a19 81c1 2403 eeb6 7f89
00000010: 062a 1e2c c51f c63c c229 401e 1a9f bb2e
00000020: bb03 bbd4 c31e dced 0b34 11fa da37 b609
00000030: 2a17 2c1b 7f3d 54a9 0819 64e3 9f7f 8181
00000040: ba0e f942 1f08 7fd0 4781 dfdf 1c53 1f3a
00000050: 99cd 24a9 2081 e181 dfdc e847 3d29 59b3
00000060: a2e3 2530 347f da29 e025 1909 dfd1 a702
00000070: f934 1ec2 42b4 e5cd f0c7 e5d7 235a d6c6
00000080: e7da daae f60c 03e5 efe7 0512 0df4 0409
00000090: e3ce faec e9f7 feff dd3c 252b 38b5 1423
000000a0: 7fc1 b30f 9d9f b5e6 b507 2f09 25a5 2ccc
000000b0: dd19 3626 173a aeb2 2a8b 2804 cad8 13ea
000000c0: 9612 3b05 0daf 123f dc28 151b 7f3c 547f
000000d0: 81f1 7f5d f081 2da1 9d81 868e 7f7f 7f4c
000000e0: 817f 9cce 6961 7f7f 7f81 817f 857f 9081
000000f0: 997f 8181 555a 7f7f 8146 7f7f 7f7f 55b5

sequential/model/conv_pw_8/Conv2D i1 [51, 1, 1, 51]
-25 10 -40 48 -45 89 -6 10
-51 19 -27 -16 97 10 -14 -57
-19 96 -5 -11 -2 36 3 52
-31 -8 -49 -70 -55 -24 -32 -2
127 -22 12 -68 15 -20 -13 24
-33 29 38 7 -49 -29 -30 57
-35 -15 29 127 46 -52 -26 33
-28 -32 -19 76 77 -50 39 -19
-4 -3 -43 -49 -33 -16 -40 21
-83 14 23 32 -68 -44 -11 46
-32 45 69 6 50 -111 25 -12
-21 -57 62 70 -78 1 33 13
121 90 -21 -78 -44 52 -7 127
-38 -27 124 -68 -40 10 -64 -36
-19 -4 38 7 12 -9 -19 -10
3 43 92 32 31 89 26 -27
81 -46 82 -14 124 -11 44 -14
-24 -4 -48 44 -48 -17 -26 -5
64 -66 -57 59 -79 63 -11 -45
47 -12 80 26 99 -44 30 101
-22 -58 -90 -42 -20 22 76 -31
5 -127 72 -3 -21 57 -80 -5
5 27 -68 -22 -37 2 112 65
75 44 36 -108 -57 14 25 -46
13 20 6 -37 -11 24 17 62
28 58 62 47 -17 -81 -38 -84
77 -40 -127 47 -23 13 68 -102
22 -14 -8 -10 -94 -51 10 -42
85 0 -46 14 -7 -5 31 -12
-22 -11 -7 34 46 49 44 20
-79 91 39 -6 46 3 8 72
34 11 -18 -12 2 -60 61 -64
00000000: e70a d830 d359 fa0a cd13 e5f0 610a f2c7
00000010: ed60 fbf5 fe24 0334 e1f8 cfba c9e8 e0fe
00000020: 7fea 0cbc 0fec f318 df1d 2607 cfe3 e239
00000030: ddf1 1d7f 2ecc e621 e4e0 ed4c 4dce 27ed
00000040: fcfd d5cf dff0 d815 ad0e 1720 bcd4 f52e
00000050: e02d 4506 3291 19f4 ebc7 3e46 b201 210d
00000060: 795a ebb2 d434 f97f dae5 7cbc d80a c0dc
00000070: edfc 2607 0cf7 edf6 032b 5c20 1f59 1ae5
00000080: 51d2 52f2 7cf5 2cf2 e8fc d02c d0ef e6fb
00000090: 40be c73b b13f f5d3 2ff4 501a 63d4 1e65
000000a0: eac6 a6d6 ec16 4ce1 0581 48fd eb39 b0fb
000000b0: 051b bcea db02 7041 4b2c 2494 c70e 19d2
000000c0: 0d14 06db f518 113e 1c3a 3e2f efaf daac
000000d0: 4dd8 812f e90d 449a 16f2 f8f6 a2cd 0ad6
000000e0: 5500 d20e f9fb 1ff4 eaf5 f922 2e31 2c14
000000f0: b15b 27fa 2e03 0848 220b eef4 02c4 3dc0

sequential/model/conv_dw_8_bn/FusedBatchNormV3;sequential/model/conv_dw_8/depthwise;sequential/model/conv_dw_12/depthwise i1 [1, 3, 3, 51]
-81 -7 -6 -12 16 27 -4 15
-26 -14 -12 8 -36 -14 2 19
1 6 15 -9 -10 13 -2 -5
-2 -8 8 -14 -6 -1 5 -9
-9 3 -12 15 -29 35 -78 -2
-80 -44 5 11 -13 4 -31 -72
27 -9 1 8 -4 64 -7 13
59 -18 25 127 93 41 38 127
29 72 42 31 -22 92 46 13
-103 27 -51 41 37 21 -26 10
29 38 37 27 -9 -5 -7 31
-19 -93 25 -53 -59 15 -52 -15
-62 45 -78 -80 -60 45 65 -8
-1 12 15 16 -3 17 -2 -24
-18 10 22 14 -14 25 2 -7
20 -9 -17 22 -2 4 16 -2
12 -4 -29 6 9 4 8 -11
-32 11 -13 41 -12 -15 -68 -36
16 2 -6 0 -3 -72 -23 -17
7 -127 -20 105 -19 9 -5 -13
37 69 54 7 15 57 2 24
24 -16 -59 80 9 -32 -41 21
-40 42 57 2 -13 -18 24 9
-24 -8 1 11 -51 19 27 -75
8 -36 14 94 -37 -46 4 28
-127 -127 -5 14 0 127 127 127
127 127 -127 127 125 127 127 127
113 109 127 127 127 -127 96 127
-127 -127 127 -127 127 127 127 -127
-127 127 110 127 127 127 127 -127
127 -37 -119 120 -127 127 -40 127
-127 127 127 110 -7 127 23 113
00000000: aff9 faf4 101b fc0f e6f2 f408 dcf2 0213
00000010: 0106 0ff7 f60d fefb fef8 08f2 faff 05f7
00000020: f703 f40f e323 b2fe b0d4 050b f304 e1b8
00000030: 1bf7 0108 fc40 f90d 3bee 197f 5d29 267f
00000040: 1d48 2a1f ea5c 2e0d 991b cd29 2515 e60a
00000050: 1d26 251b f7fb f91f eda3 19cb c50f ccf1
00000060: c22d b2b0 c42d 41f8 ff0c 0f10 fd11 fee8
00000070: ee0a 160e f219 02f9 14f7 ef16 fe04 10fe
00000080: 0cfc e306 0904 08f5 e00b f329 f4f1 bcdc
00000090: 1002 fa00 fdb8 e9ef 0781 ec69 ed09 fbf3
000000a0: 2545 3607 0f39 0218 18f0 c550 09e0 d715
000000b0: d82a 3902 f3ee 1809 e8f8 010b cd13 1bb5
000000c0: 08dc 0e5e dbd2 041c 8181 fb0e 007f 7f7f
000000d0: 7f7f 817f 7d7f 7f7f 716d 7f7f 7f81 607f
000000e0: 8181 7f81 7f7f 7f81 817f 6e7f 7f7f 7f81
000000f0: 7fdb 8978 817f d87f 817f 7f6e f97f 1771

sequential/model/conv_pw_7/Conv2D i1 [51, 1, 1, 51]
24 5 127 -43 -16 -74 19 -12
-82 -7 17 -8 7 31 31 41
-81 -36 -1 51 -34 -17 -46 2
50 2 12 -35 -10 -36 -4 -9
38 -3 19 3 -21 -13 10 -56
43 10 58 -63 65 -18 -24 -35
21 -34 -15 60 -2 66 66 74
-40 -23 114 -25 -31 20 -28 5
54 100 103 -18 2 82 72 -47
-6 -107 -20 56 -47 127 -41 26
103 63 -10 45 -54 38 31 -29
62 -9 37 82 59 94 37 69
-22 -11 -3 -49 -94 -4 -1 27
-25 -53 26 95 38 6 -12 -21
80 58 42 -23 -48 43 -43 -10
-65 41 71 -43 32 17 1 -4
-75 17 7 101 86 -6 -24 -23
-44 30 -56 -15 -33 14 -34 2
-59 -44 -68 127 -32 7 19 -39
-21 -19 1 -75 -42 58 -56 -28
-13 23 35 81 9 60 35 81
127 97 -73 -2 66 -1 -23 -59
120 35 44 15 16 18 71 -34
-27 -3 15 11 -63 -105 -5 -9
-63 0 21 12 30 20 24 -53
30 7 11 -70 -54 -15 -5 6
-5 83 -3 20 6 -39 -14 22
53 43 22 8 13 -7 -55 -22
49 103 -16 7 -79 -45 -5 4
108 -59 21 127 42 -8 -35 45
-41 30 62 83 -23 -29 -8 -6
11 -40 -16 14 37 -19 49 61
00000000: 1805 7fd5 f0b6 13f4 aef9 11f8 071f 1f29
00000010: afdc ff33 deef d202 3202 0cdd f6dc fcf7
00000020: 26fd 1303 ebf3 0ac8 2b0a 3ac1 41ee e8dd
00000030: 15de f13c fe42 424a d8e9 72e7 e114 e405
00000040: 3664 67ee 0252 48d1 fa95 ec38 d17f d71a
00000050: 673f f62d ca26 1fe3 3ef7 2552 3b5e 2545
00000060: eaf5 fdcf a2fc ff1b e7cb 1a5f 2606 f4eb
00000070: 503a 2ae9 d02b d5f6 bf29 47d5 2011 01fc
00000080: b511 0765 56fa e8e9 d41e c8f1 df0e de02
00000090: c5d4 bc7f e007 13d9 ebed 01b5 d63a c8e4
000000a0: f317 2351 093c 2351 7f61 b7fe 42ff e9c5
000000b0: 7823 2c0f 1012 47de e5fd 0f0b c197 fbf7
000000c0: c100 150c 1e14 18cb 1e07 0bba caf1 fb06
000000d0: fb53 fd14 06d9 f216 352b 1608 0df9 c9ea
000000e0: 3167 f007 b1d3 fb04 6cc5 157f 2af8 dd2d
000000f0: d71e 3e53 e9e3 f8fa 0bd8 f00e 25ed 313d

sequential/model/conv_dw_7_bn/FusedBatchNormV3;sequential/model/conv_dw_7/depthwise;sequential/model/conv_dw_12/depthwise i1 [1, 3, 3, 51]
-19 -30 8 -8 3 1 20 13
-1 -25 -3 3 -15 -2 -2 16
-36 -72 16 -6 -8 15 3 5
127 -14 -2 4 0 5 10 -18
-28 -14 -50 -14 -4 9 -5 -19
-2 -9 -4 0 29 1 8 -14
4 -2 1 19 -26 36 -18 2
-3 -42 24 -26 -35 0 -13 16
5 -41 -102 -95 -85 -15 -23 -25
1 -16 -3 89 -127 -21 14 7
-12 -31 6 12 -76 -1 -127 48
33 -51 77 -32 1 -5 -11 -78
-33 -19 -3 -77 -17 -65 -14 -25
19 -14 4 7 13 20 2 13
-8 2 4 -4 -1 6 -45 27
12 -26 -7 11 0 2 100 2
1 15 5 8 2 -13 2 -4
45 -1 -28 8 -11 -18 -6 -7
0 24 36 0 -12 -7 -13 -2
-16 -51 -46 22 -32 24 -27 18
12 -6 -127 -6 -15 -26 29 2
-56 -96 -127 22 -16 0 5 -15
11 -76 -4 -15 18 -12 -19 -7
22 127 -20 -127 6 40 17 -42
-46 -15 11 -7 77 -127 -28 -12
-49 -46 -32 -51 127 -127 127 127
127 -127 -127 127 -127 6 127 127
-127 101 -127 -86 -11 10 -127 127
-127 127 127 122 -121 -65 127 -127
127 -127 -127 127 116 -127 38 15
127 -127 127 127 127 127 127 127
0 127 127 -127 127 127 127 -38
00000000: ede2 08f8 0301 140d ffe7 fd03 f1fe fe10
00000010: dcb8 10fa f80f 0305 7ff2 fe04 0005 0aee
00000020: e4f2 cef2 fc09 fbed fef7 fc00 1d01 08f2
00000030: 04fe 0113 e624 ee02 fdd6 18e6 dd00 f310
00000040: 05d7 9aa1 abf1 e9e7 01f0 fd59 81eb 0e07
00000050: f4e1 060c b4ff 8130 21cd 4de0 01fb f5b2
00000060: dfed fdb3 efbf f2e7 13f2 0407 0d14 020d
00000070: f802 04fc ff06 d31b 0ce6 f90b 0002 6402
00000080: 010f 0508 02f3 02fc 2dff e408 f5ee faf9
00000090: 0018 2400 f4f9 f3fe f0cd d216 e018 e512
000000a0: 0cfa 81fa f1e6 1d02 c8a0 8116 f000 05f1
000000b0: 0bb4 fcf1 12f4 edf9 167f ec81 0628 11d6
000000c0: d2f1 0bf9 4d81 e4f4 cfd2 e0cd 7f81 7f7f
000000d0: 7f81 817f 8106 7f7f 8165 81aa f50a 817f
000000e0: 817f 7f7a 87bf 7f81 7f81 817f 7481 260f
000000f0: 7f81 7f7f 7f7f 7f7f 007f 7f81 7f7f 7fda

sequential/model/conv_pw_6/Conv2D i1 [51, 1, 1, 25]
-39 -127 14 47 -66 -60 46 -8
-22 -18 -28 63 -109 -25 2 22
90 11 0 34 -55 -4 -49 -15
-45 39 -15 2 -26 0 15 12
-23 21 18 -21 -30 12 127 3
-8 16 10 22 -40 -4 7 -10
4 -17 -7 127 -16 -91 3 -38
-58 38 -66 -82 -56 64 68 -34
-19 -86 31 -41 37 -4 8 -24
-85 -16 49 35 -87 -91 -44 -25
-23 104 127 -43 27 -84 12 -36
57 -13 -18 2 -5 -7 36 0
104 55 6 60 -20 10 -19 63
-11 -61 -14 42 18 51 -33 0
119 66 4 -30 90 127 3 -23
-114 -34 71 4 18 -10 6 -127
93 -59 -112 20 0 56 -53 -19
89 -43 14 65 24 99 -18 22
8 -96 -14 -88 6 -42 -127 -30
-14 -1 -7 -1 -19 -19 3 -7
2 -6 16 -9 2 1 -4 4
29 -35 9 5 1 -3 -7 127
-34 -16 83 -23 74 14 -60 -50
121 -105 55 -4 -29 5 70 -26
-3 90 -10 -15 55 -94 32 -34
30 -36 33 26 25 19 -74 3
31 -81 -6 -38 1 55 1 -35
124 127 -6 16 -82 -30 49 39
56 -2 51 -52 -37 18 3 10
-68 21 -23 127 16 29 -21 -12
-15 -13 16 49 9 19 -26 42
-10 -6 112 -95 -40 -13 -2 -18
00000000: d981 0e2f bec4 2ef8 eaee e43f 93e7 0216
00000010: 5a0b 0022 c9fc cff1 d327 f102 e600 0f0c
00000020: e915 12eb e20c 7f03 f810 0a16 d8fc 07f6
00000030: 04ef f97f f0a5 03da c626 beae c840 44de
00000040: edaa 1fd7 25fc 08e8 abf0 3123 a9a5 d4e7
00000050: e968 7fd5 1bac 0cdc 39f3 ee02 fbf9 2400
00000060: 6837 063c ec0a ed3f f5c3 f22a 1233 df00
00000070: 7742 04e2 5a7f 03e9 8ede 4704 12f6 0681
00000080: 5dc5 9014 0038 cbed 59d5 0e41 1863 ee16
00000090: 08a0 f2a8 06d6 81e2 f2ff f9ff eded 03f9
000000a0: 02fa 10f7 0201 fc04 1ddd 0905 01fd f97f
000000b0: def0 53e9 4a0e c4ce 7997 37fc e305 46e6
000000c0: fd5a f6f1 37a2 20de 1edc 211a 1913 b603
000000d0: 1faf fada 0137 01dd 7c7f fa10 aee2 3127
000000e0: 38fe 33cc db12 030a bc15 e97f 101d ebf4
000000f0: f1f3 1031 0913 e62a f6fa 70a1 d8f3 feee

sequential/model/conv_dw_6_bn/FusedBatchNormV3;sequential/model/conv_dw_6/depthwise i1 [1, 3, 3, 25]
92 67 93 69 87 -38 63 80
-41 -61 55 -94 62 66 101 -114
73 64 60 -79 -77 55 -40 -55
80 110 92 114 101 127 -80 92
98 -67 -86 80 -112 82 94 -18
-104 102 94 104 -90 -89 85 -97
-95 106 39 41 45 38 47 -41
39 41 -20 -38 50 -31 36 44
-89 -38 38 41 47 -15 -18 41
-60 -52 47 109 101 100 90 51
-64 105 95 -73 -87 62 -100 91
98 127 -127 90 86 74 -127 -90
81 -67 -71 81 127 127 127 127
50 -127 127 127 -127 -127 127 -127
127 127 -30 -115 127 127 127 -124
-127 127 -127 -127 127 58 56 56
49 1 -65 54 52 -56 -53 73
-38 56 55 -102 -27 44 53 59
-40 -40 63 -72 -69 59 42 42
25 32 8 -16 40 36 -35 -36
21 -34 44 45 59 -52 22 40
31 -65 -50 42 -21 -22 21 50
52 40 47 -39 -48 40 40 -77
-59 65 -42 61 56 -25 -56 40
57 62 -62 -62 67 -50 -47 43
29 28 29 18 -16 -29 28 14
-49 -24 58 -4 29 24 -63 2
17 35 35 -26 -23 42 -28 -26
20
00000000: 5c43 5d45 57da 3f50 d7c3 37a2 3e42 658e
00000010: 4940 3cb1 b337 d8c9 506e 5c72 657f b05c
00000020: 62bd aa50 9052 5eee 9866 5e68 a6a7 559f
00000030: a16a 2729 2d26 2fd7 2729 ecda 32e1 242c
00000040: a7da 2629 2ff1 ee29 c4cc 2f6d 6564 5a33
00000050: c069 5fb7 a93e 9c5b 627f 815a 564a 81a6
00000060: 51bd b951 7f7f 7f7f 3281 7f7f 8181 7f81
00000070: 7f7f e28d 7f7f 7f84 817f 8181 7f3a 3838
00000080: 3101 bf36 34c8 cb49 da38 379a e52c 353b
00000090: d8d8 3fb8 bb3b 2a2a 1920 08f0 2824 dddc
000000a0: 15de 2c2d 3bcc 1628 1fbf ce2a ebea 1532
000000b0: 3428 2fd9 d028 28b3 c541 d63d 38e7 c828
000000c0: 393e c2c2 43ce d12b 1d1c 1d12 f0e3 1c0e
000000d0: cfe8 3afc 1d18 c102 1123 23e6 e92a e4e6
000000e0: 14

sequential/model/conv_pw_5/Conv2D i1 [25, 1, 1, 25]
13 2 -9 5 -67 -53 6 -17
-50 -43 127 -78 0 38 -18 -110
1 -15 -88 26 11 -26 19 -9
-7 -19 -56 127 26 -26 11 -48
0 -36 -16 64 -127 54 -56 -11
-30 -35 72 -6 0 -8 105 37
6 85 -63 -78 26 16 20 52
126 -34 -99 59 34 -39 -31 -8
-52 111 -48 -120 25 127 -43 19
-46 -59 -40 -74 16 -5 -1 16
7 -34 57 52 -17 -34 24 -15
-35 1 -15 49 127 -20 -14 -1
-46 65 16 -37 -17 71 -1 -24
127 117 -18 -21 79 -60 18 -13
-74 94 57 114 -38 52 52 76
53 60 4 -52 -17 -18 -26 14
-1 -11 26 -3 18 4 127 7
-27 -6 -29 -17 -12 1 20 16
-10 -36 -13 3 60 -11 -58 -6
15 -31 47 23 -24 42 -15 -10
22 -31 -3 -4 -30 29 -28 -23
-14 -74 67 -60 23 43 -127 23
52 -20 19 35 6 -22 16 -50
0 -26 63 88 24 22 6 -98
127 -19 -48 -34 -64 -37 -7 62
-2 10 2 27 6 38 17 127
9 -48 8 -7 -40 9 -33 11
27 -18 32 -38 48 -86 17 7
-16 29 31 13 -62 2 35 58
-18 -16 -85 24 -34 -54 74 -28
8 -40 -127 49 5 -32 42 -2
-12 -2 6 30 7 23 84 69
00000000: 0d02 f705 bdcb 06ef ced5 7fb2 0026 ee92
00000010: 01f1 a81a 0be6 13f7 f9ed c87f 1ae6 0bd0
00000020: 00dc f040 8136 c8f5 e2dd 48fa 00f8 6925
00000030: 0655 c1b2 1a10 1434 7ede 9d3b 22d9 e1f8
00000040: cc6f d088 197f d513 d2c5 d8b6 10fb ff10
00000050: 07de 3934 efde 18f1 dd01 f131 7fec f2ff
00000060: d241 10db ef47 ffe8 7f75 eeeb 4fc4 12f3
00000070: b65e 3972 da34 344c 353c 04cc efee e60e
00000080: fff5 1afd 1204 7f07 e5fa e3ef f401 1410
00000090: f6dc f303 3cf5 c6fa 0fe1 2f17 e82a f1f6
000000a0: 16e1 fdfc e21d e4e9 f2b6 43c4 172b 8117
000000b0: 34ec 1323 06ea 10ce 00e6 3f58 1816 069e
000000c0: 7fed d0de c0db f93e fe0a 021b 0626 117f
000000d0: 09d0 08f9 d809 df0b 1bee 20da 30aa 1107
000000e0: f01d 1f0d c202 233a eef0 ab18 deca 4ae4
000000f0: 08d8 8131 05e0 2afe f4fe 061e 0717 5445

sequential/model/conv_dw_5_bn/FusedBatchNormV3;sequential/model/conv_dw_5/depthwise;sequential/model/conv_dw_6/depthwise i1 [1, 3, 3, 25]
6 -12 -25 27 -17 -78 -14 -127
3 -1 2 10 19 29 9 22
-23 -3 -6 -112 -41 -42 -28 -3
-11 -46 44 127 72 -11 -67 36
88 1 8 -37 -3 -41 -21 57
2 23 1 -6 -127 -127 56 17
-7 8 27 -15 -34 14 -2 10
-31 40 11 -1 -12 7 16 -4
-52 -2 -15 -5 -14 -23 -4 25
12 -2 -9 -93 -118 -58 -74 60
-127 49 123 -30 -127 -1 -6 56
-127 -55 -25 33 -20 10 -76 -49
-7 -126 127 31 -127 -127 -74 -127
127 -83 127 -89 -127 83 127 -127
-127 2 -127 -127 127 127 127 -110
-48 -127 127 40 127 -36 -15 -57
-33 9 25 -23 -39 -35 26 37
33 41 -7 120 -34 10 -39 35
20 -7 -66 -6 5 3 33 -12
18 35 -46 79 -34 21 17 8
-19 18 6 33 28 32 -21 4
-13 -17 44 6 18 -35 -15 18
-6 -32 67 -108 87 -31 -15 37
7 -58 27 -28 -4 62 -15 8
-36 -47 -2 -19 26 -32 18 -30
25 16 12 10 -18 -79 -4 -4
19 0 -26 5 9 0 -40 13
-11 5 -23 -11 33 14 14 -9
-10
00000000: 06f4 e71b efb2 f281 03ff 020a 131d 0916
00000010: e9fd fa90 d7d6 e4fd f5d2 2c7f 48f5 bd24
00000020: 5801 08db fdd7 eb39 0217 01fa 8181 3811
00000030: f908 1bf1 de0e fe0a e128 0bff f407 10fc
00000040: ccfe f1fb f2e9 fc19 0cfe f7a3 8ac6 b63c
00000050: 8131 7be2 81ff fa38 81c9 e721 ec0a b4cf
00000060: f982 7f1f 8181 b681 7fad 7fa7 8153 7f81
00000070: 8102 8181 7f7f 7f92 d081 7f28 7fdc f1c7
00000080: df09 19e9 d9dd 1a25 2129 f978 de0a d923
00000090: 14f9 befa 0503 21f4 1223 d24f de15 1108
000000a0: ed12 0621 1c20 eb04 f3ef 2c06 12dd f112
000000b0: fae0 4394 57e1 f125 07c6 1be4 fc3e f108
000000c0: dcd1 feed 1ae0 12e2 1910 0c0a eeb1 fcfc
000000d0: 1300 e605 0900 d80d f505 e9f5 210e 0ef7
000000e0: f6

sequential/model/conv_pw_4/Conv2D i1 [25, 1, 1, 12]
-127 71 8 -8 0 -20 103 27
-90 23 -58 -9 127 117 49 -56
103 -6 -17 -3 80 0 36 -24
5 0 8 -1 127 -54 -7 -1
16 0 5 2 72 -79 15 -45
3 22 -13 127 -8 74 49 47
-45 15 12 -7 -41 0 9 0
-26 -9 127 -11 53 21 16 -2
127 7 -4 16 34 0 10 14
29 -2 127 21 -98 69 -17 -34
23 -22 -96 -26 -24 -32 -30 17
-40 -33 9 -22 -3 -12 -127 14
-19 -127 75 -5 39 -61 104 1
51 -21 -41 -5 28 -48 -47 -4
-4 9 -24 1 -2 8 -127 28
13 -45 3 -10 -28 -127 -4 0
16 0 -6 0 5 14 33 5
123 -127 -17 4 38 7 -8 -6
14 50 -5 15 -20 -6 -35 -16
-127 -20 0 -2 -70 -8 24 -14
-21 38 8 -4 6 2 127 -38
-72 8 39 20 38 -17 95 41
127 28 -58 -12 -51 -49 -115 -5
-46 124 -74 -15 -55 11 -127 -32
31 23 9 -127 5 -14 -15 104
30 57 -32 19 58 -127 10 -14
50 -1 -13 18 -59 14 55 25
1 21 -17 -8 56 127 8 5
-34 -5 -31 1 -44 -50 -127 -15
-17 1 22 -3 11 -2 54 -5
-44 -90 62 29 -11 31 9 -59
-127 -39 -14 -31 27 -30 -48 61
00000000: 8147 08f8 00ec 671b a617 c6f7 7f75 31c8
00000010: 67fa effd 5000 24e8 0500 08ff 7fca f9ff
00000020: 1000 0502 48b1 0fd3 0316 f37f f84a 312f
00000030: d30f 0cf9 d700 0900 e6f7 7ff5 3515 10fe
00000040: 7f07 fc10 2200 0a0e 1dfe 7f15 9e45 efde
00000050: 17ea a0e6 e8e0 e211 d8df 09ea fdf4 810e
00000060: ed81 4bfb 27c3 6801 33eb d7fb 1cd0 d1fc
00000070: fc09 e801 fe08 811c 0dd3 03f6 e481 fc00
00000080: 1000 fa00 050e 2105 7b81 ef04 2607 f8fa
00000090: 0e32 fb0f ecfa ddf0 81ec 00fe baf8 18f2
000000a0: eb26 08fc 0602 7fda b808 2714 26ef 5f29
000000b0: 7f1c c6f4 cdcf 8dfb d27c b6f1 c90b 81e0
000000c0: 1f17 0981 05f2 f168 1e39 e013 3a81 0af2
000000d0: 32ff f312 c50e 3719 0115 eff8 387f 0805
000000e0: defb e101 d4ce 81f1 ef01 16fd 0bfe 36fb
000000f0: d4a6 3e1d f51f 09c5 81d9 f2e1 1be2 d03d

sequential/model/conv_dw_4_bn/FusedBatchNormV3;sequential/model/conv_dw_4/depthwise i1 [1, 3, 3, 12]
-105 -68 -72 -80 74 -50 127 28
-81 -1 -80 -108 -97 -101 -87 -127
98 -85 126 106 -93 -103 -127 36
1 -37 -26 -59 45 -45 64 31
-36 82 -69 75 -127 -100 -106 -91
98 -80 124 36 -103 9 -74 -127
-121 -127 -127 -117 127 -127 125 127
-127 -110 -125 41 -6 -52 -42 -51
61 -72 76 26 -41 127 -71 86
-31 -42 -64 -11 58 -23 67 3
-44 3 1 -32 -39 -56 -77 -16
72 -54 65 39 -52 -57 5 10
-7 -23 -16 -6 36 -29 37 -2
-12 62 7 25
00000000: 97bc b8b0 4ace 7f1c afff b094 9f9b a981
00000010: 62ab 7e6a a399 8124 01db e6c5 2dd3 401f
00000020: dc52 bb4b 819c 96a5 62b0 7c24 9909 b681
00000030: 8781 818b 7f81 7d7f 8192 8329 facc d6cd
00000040: 3db8 4c1a d77f b956 e1d6 c0f5 3ae9 4303
00000050: d403 01e0 d9c8 b3f0 48ca 4127 ccc7 050a
00000060: f9e9 f0fa 24e3 25fe f43e 0719

sequential/model/conv_pw_3/Conv2D i1 [12, 1, 1, 12]
6 -33 -39 29 103 49 2 20
-3 127 -5 21 13 127 25 -99
1 -102 -34 -51 13 43 -22 29
-34 -27 84 18 22 34 41 -34
40 -9 -5 127 127 -24 -31 6
12 -38 -7 13 -7 -13 108 -2
0 6 9 0 -2 -4 110 -2
127 6 0 4 0 -36 17 15
-4 22 -127 -6 54 6 8 2
-1 48 15 0 127 -4 4 7
2 4 -4 -13 127 -44 40 50
38 -76 -1 38 -13 -2 127 -5
13 -14 10 -1 -127 -5 -2 -12
48 65 10 -31 127 -25 -10 26
36 -37 22 8 -5 7 76 2
6 -1 127 2 -11 14 52 -110
-16 1 22 -24 -13 -7 98 -27
-6 9 19 -127 -1 4 0 2
00000000: 06df d91d 6731 0214 fd7f fb15 0d7f 199d
00000010: 019a decd 0d2b ea1d dee5 5412 1622 29de
00000020: 28f7 fb7f 7fe8 e106 0cda f90d f9f3 6cfe
00000030: 0006 0900 fefc 6efe 7f06 0004 00dc 110f
00000040: fc16 81fa 3606 0802 ff30 0f00 7ffc 0407
00000050: 0204 fcf3 7fd4 2832 26b4 ff26 f3fe 7ffb
00000060: 0df2 0aff 81fb fef4 3041 0ae1 7fe7 f61a
00000070: 24db 1608 fb07 4c02 06ff 7f02 f50e 3492
00000080: f001 16e8 f3f9 62e5 fa09 1381 ff04 0002

sequential/model/conv_dw_3_bn/FusedBatchNormV3;sequential/model/conv_dw_3/depthwise;sequential/model/conv_dw_4/depthwise i1 [1, 3, 3, 12]
57 -42 0 -60 -8 -12 21 3
26 3 -49 -9 -32 -58 -10 6
19 -22 -32 35 -48 18 10 4
-4 31 1 -8 -5 0 15 -10
-1 -2 1 -7 127 -71 -4 -127
6 -127 23 108 -79 10 -127 51
-3 -127 -127 -16 127 -35 -127 127
127 -127 1 122 20 -18 11 3
-23 0 3 80 14 29 3 19
23 -14 -1 -51 -4 -3 17 19
10 7 -44 -43 -13 -44 -6 10
-7 -13 -46 30 -33 20 10 -127
-12 28 3 -3 2 1 -4 9
-10 4 1 -11
00000000: 39d6 00c4 f8f4 1503 1a03 cff7 e0c6 f606
00000010: 13ea e023 d012 0a04 fc1f 01f8 fb00 0ff6
00000020: fffe 01f9 7fb9 fc81 0681 176c b10a 8133
00000030: fd81 81f0 7fdd 817f 7f81 017a 14ee 0b03
00000040: e900 0350 0e1d 0313 17f2 ffcd fcfd 1113
00000050: 0a07 d4d5 f3d4 fa0a f9f3 d21e df14 0a81
00000060: f41c 03fd 0201 fc09 f604 01f5

sequential/model/conv_pw_2/Conv2D i1 [12, 1, 1, 6]
95 21 -18 127 -22 -23 28 127
-26 28 -45 70 -13 -21 77 -1
127 1 -127 11 -16 16 -32 -14
7 61 -7 3 -18 -127 127 -8
22 -34 42 -8 1 -10 127 1
-71 2 -14 -3 78 -8 127 6
0 1 -127 -1 75 4 -9 -127
36 -6 60 13 127 -28 20 -34
36 -5 2 -12 -96 -19 -127 -1
00000000: 5f15 ee7f eae9 1c7f e61c d346 f3eb 4dff
00000010: 7f01 810b f010 e0f2 073d f903 ee81 7ff8
00000020: 16de 2af8 01f6 7f01 b902 f2fd 4ef8 7f06
00000030: 0001 81ff 4b04 f781 24fa 3c0d 7fe4 14de
00000040: 24fb 02f4 a0ed 81ff

sequential/model/conv_dw_2_bn/FusedBatchNormV3;sequential/model/conv_dw_2/depthwise i1 [1, 3, 3, 6]
-79 -76 -50 -24 51 35 50 -98
-89 81 87 54 -8 -41 -39 -60
37 23 -127 -98 -72 -38 73 64
84 -127 -127 127 127 127 -7 -49
-59 -93 53 72 -59 -39 -28 -13
30 35 45 -49 -47 72 47 82
2 -11 -14 -44 15 52
00000000: b1b4 cee8 3323 329e a751 5736 f8d7 d9c4
00000010: 2517 819e b8da 4940 5481 817f 7f7f f9cf
00000020: c5a3 3548 c5d9 e4f3 1e23 2dcf d148 2f52
00000030: 02f5 f2d4 0f34

sequential/model/conv_pw_1/Conv2D i1 [6, 1, 1, 3]
-127 11 9 127 -4 -3 110 1
127 127 -7 -19 -127 0 58 0
127 -1
00000000: 810b 097f fcfd 6e01 7f7f f9ed 8100 3a00
00000010: 7fff

sequential/model/conv_dw_1_bn/FusedBatchNormV3;sequential/model/conv_dw_1/depthwise i1 [1, 3, 3, 3]
-5 -1 -3 -9 127 38 18 -5
-41 12 -1 65 41 -121 127 -127
-4 -79 -3 10 -59 -13 -16 -15
36 11 -2
00000000: fbff fdf7 7f26 12fb d70c ff41 2987 7f81
00000010: fcb1 fd0a c5f3 f0f1 240b fe

sequential/model/conv1/Conv2D i1 [3, 3, 3, 3]
32 64 21 -3 -9 14 -33 -72
-8 79 115 34 -6 -12 20 -74
-127 -16 33 21 24 -2 -10 11
-29 -36 -16 -8 -38 -11 -26 -77
-18 -10 -41 -14 50 80 0 73
127 2 54 83 1 -41 -30 16
-61 -64 15 -42 -36 18 17 3
-21 49 11 -56 49 31 -75 55
-81 24 68 -99 33 47 -41 -4
42 -98 56 30 -127 95 18 -74
52
00000000: 2040 15fd f70e dfb8 f84f 7322 faf4 14b6
00000010: 81f0 2115 18fe f60b e3dc f0f8 daf5 e6b3
00000020: eef6 d7f2 3250 0049 7f02 3653 01d7 e210
00000030: c3c0 0fd6 dc12 1103 eb31 0bc8 311f b537
00000040: af18 449d 212f d7fc 2a9e 381e 815f 12b6
00000050: 34
