Tensorflow/model_pruned.tflite (tflite, 22576 bytes, 4 tensors)

model/pruned_functional/dense_1/MatMul i1 [2, 8] scale=0.005522987 zero_point=0
00000000: 0000 0000 0000 0000 0000 0075 0000 0081
0.0 0.0 0.0 0.0 0.0 0.0 0.0 0.0
0.0 0.0 0.0 0.64618945 0.0 0.0 0.0 -0.70141935

model/pruned_functional/dense/MatMul i1 [8, 2304] scale=0.00096373254 zero_point=0
00000000: 3400 0000 0000 0000 0000 0000 0000 0000
00000010: 0000 0000 0037 3c00 0000 0000 0000 0000
00000020: 0000 0000 3c36 0000 0000 0000 0038 3300
00000030: 0000 0000 0000 3f00 0000 3a48 3800 0000
00000040: 0000 0000 0000 0000 0000 3500 0000 0000
00000050: 3500 0000 0031 0000 3600 0000 4000 003d
00000060: 3200 0036 3100 0000 0000 0033 0000 0000
00000070: 0000 0000 0000 0000 0000 003d 0036 0000
00000080: 0000 0000 4300 0000 0000 0000 0036 0000
00000090: 0000 0000 0000 0000 0000 0000 0000 0000
000000a0: 0000 0000 0000 0000 0000 0000 0048 0000
000000b0: 3000 0000 0000 0000 0000 3600 0000 0031
000000c0: 0000 0038 0000 0000 0000 0000 0000 0000
000000d0: 0000 0000 0000 0000 0000 0000 0000 3a00
000000e0: 3700 0000 0000 303b 0000 0000 0000 0031
000000f0: 0000 0030 0000 3200 0000 0000 0000 0000
0.05011409 0.0 0.0 0.0 0.0 0.0 0.0 0.0
0.0 0.0 0.0 0.0 0.0 0.0 0.0 0.0
0.0 0.0 0.0 0.0 0.0 0.05300529 0.057823952 0.0
0.0 0.0 0.0 0.0 0.0 0.0 0.0 0.0
0.0 0.0 0.0 0.0 0.057823952 0.052041557 0.0 0.0
0.0 0.0 0.0 0.0 0.0 0.053969022 0.04915036 0.0
0.0 0.0 0.0 0.0 0.0 0.0 0.06071515 0.0
0.0 0.0 0.055896487 0.06938874 0.053969022 0.0 0.0 0.0
0.0 0.0 0.0 0.0 0.0 0.0 0.0 0.0
0.0 0.0 0.051077824 0.0 0.0 0.0 0.0 0.0
0.051077824 0.0 0.0 0.0 0.0 0.047222894 0.0 0.0
0.052041557 0.0 0.0 0.0 0.061678883 0.0 0.0 0.058787685
0.048186626 0.0 0.0 0.052041557 0.047222894 0.0 0.0 0.0
0.0 0.0 0.0 0.04915036 0.0 0.0 0.0 0.0
0.0 0.0 0.0 0.0 0.0 0.0 0.0 0.0
0.0 0.0 0.0 0.058787685 0.0 0.052041557 0.0 0.0
0.0 0.0 0.0 0.0 0.06457008 0.0 0.0 0.0
0.0 0.0 0.0 0.0 0.0 0.052041557 0.0 0.0
0.0 0.0 0.0 0.0 0.0 0.0 0.0 0.0
0.0 0.0 0.0 0.0 0.0 0.0 0.0 0.0
0.0 0.0 0.0 0.0 0.0 0.0 0.0 0.0
0.0 0.0 0.0 0.0 0.0 0.06938874 0.0 0.0
0.04625916 0.0 0.0 0.0 0.0 0.0 0.0 0.0
0.0 0.0 0.052041557 0.0 0.0 0.0 0.0 0.047222894
0.0 0.0 0.0 0.053969022 0.0 0.0 0.0 0.0
0.0 0.0 0.0 0.0 0.0 0.0 0.0 0.0
0.0 0.0 0.0 0.0 0.0 0.0 0.0 0.0
0.0 0.0 0.0 0.0 0.0 0.0 0.055896487 0.0
0.05300529 0.0 0.0 0.0 0.0 0.0 0.04625916 0.05686022
0.0 0.0 0.0 0.0 0.0 0.0 0.0 0.047222894
0.0 0.0 0.0 0.04625916 0.0 0.0 0.048186626 0.0
0.0 0.0 0.0 0.0 0.0 0.0 0.0 0.0

model/pruned_functional/conv2d_1/Conv2D i1 [4, 3, 3, 2]
00000000: 7500 0000 0000 0000 0000 0000 007f 0000
00000010: 0000 0000 0000 006b 0000 0000 716d 0000
00000020: 7f00 0000 0000 0000 0000 0000 0000 0087
00000030: 0000 0000 007f 0000 0000 007f 0000 0000
00000040: 0000 0000 0000 0000
117 0 0 0 0 0 0 0
0 0 0 0 0 127 0 0
0 0 0 0 0 0 0 107
0 0 0 0 113 109 0 0
127 0 0 0 0 0 0 0
0 0 0 0 0 0 0 -121
0 0 0 0 0 127 0 0
0 0 0 127 0 0 0 0
0 0 0 0 0 0 0 0

model/pruned_functional/conv2d/Conv2D i1 [2, 3, 3, 1]
00000000: 0000 0000 0000 0000 8100 7f00 0000 0000
00000010: 0000
0 0 0 0 0 0 0 0
-127 0 127 0 0 0 0 0
0 0
