Tensorflow/trained.tflite (tflite, 228888 bytes, 54 tensors)

sequential/dense_1/MatMul i1 [2, 72] scale=0.0027143576 zero_point=0
000000 58 d3 e2 67 be 04 cf 34 7e bd e1 fe e0 6e d6 1a
       0.23886347 -0.12214609 -0.081430726 0.27957883 -0.1791476 0.01085743 -0.13300352 0.1411466 0.34200907 -0.18186195 -0.084145084 -0.005428715 -0.08685944 0.29857934 -0.11400302 0.0705733
000010 70 a4 da bf 4e 3f 47 c6 d2 a3 e3 45 00 a8 f0 35
       0.30400804 -0.2497209 -0.103145584 -0.17643324 0.21171989 0.17100453 0.19271939 -0.15743273 -0.12486045 -0.25243527 -0.07871637 0.18729067 0.0 -0.23886347 -0.04342972 0.14386095
000020 12 0e db 3d 83 4f 0f c5 f6 cc 43 1b bc e9 47 e8
       0.048858438 0.038001005 -0.10043123 0.16557582 -0.3392947 0.21443425 0.040715363 -0.1601471 -0.027143575 -0.1411466 0.18186195 0.07328765 -0.18457632 -0.062430225 0.19271939 -0.06514458
000030 1a 16 18 d6 fa 44 19 b0 5d e5 e7 04 11 34 fe 38
       0.0705733 0.059715867 0.06514458 -0.11400302 -0.016286146 0.18457632 0.06785894 -0.2171486 0.25243527 -0.07328765 -0.06785894 0.01085743 0.04614408 0.1411466 -0.005428715 0.15200402
000040 57 56 54 ac 35 e6 0d e6 1a 56 3d b7 b9 4e f7 1a
       0.2361491 0.23343475 0.22800604 -0.22800604 0.14386095 -0.0705733 0.03528665 -0.0705733 0.0705733 0.23343475 0.16557582 -0.1981481 -0.19271939 0.21171989 -0.024429219 0.0705733
000050 c5 17 23 57 7f 01 23 03 d0 1b cd 9a c0 29 1e 6c
       -0.1601471 0.062430225 0.09500252 0.2361491 0.3447234 0.0027143576 0.09500252 0.008143073 -0.13028917 0.07328765 -0.13843223 -0.27686447 -0.17371888 0.11128866 0.081430726 0.2931506
000060 47 57 c7 f7 64 a7 a1 f2 5f 7a a7 b1 2f 5c d4 02
       0.19271939 0.2361491 -0.15471838 -0.024429219 0.27143577 -0.24157782 -0.25786397 -0.038001005 0.25786397 0.33115163 -0.24157782 -0.21443425 0.1275748 0.2497209 -0.119431734 0.005428715
000070 00 c4 c0 fb d5 03 f5 ee f1 56 a9 03 3e b3 d1 4b
       0.0 -0.16286145 -0.17371888 -0.013571788 -0.116717376 0.008143073 -0.029857934 -0.048858438 -0.040715363 0.23343475 -0.2361491 0.008143073 0.16829017 -0.20900553 -0.1275748 0.20357682
000080 d3 cc 99 6a 03 2e ec 34 d4 1d e4 a2 29 c2 3e 1b
       -0.12214609 -0.1411466 -0.27957883 0.2877219 0.008143073 0.12486045 -0.05428715 0.1411466 -0.119431734 0.07871637 -0.07600201 -0.2551496 0.11128866 -0.16829017 0.16829017 0.07328765

sequential/dense/Tensordot/MatMul i1 [8, 1280] scale=0.0012595666 zero_point=0
000000 e3 fd f4 d7 d4 0c ee 07 38 d5 56 b4 06 e0 dd db
       -0.036527433 -0.0037786998 -0.015114799 -0.05164223 -0.05542093 0.015114799 -0.022672199 0.008816967 0.070535734 -0.054161366 0.10832273 -0.09572706 0.0075573996 -0.040306132 -0.044084832 -0.046603967
000010 31 1c 21 d1 eb f7 3e c3 cd b4 d2 00 d4 f4 1f d0
       0.061718766 0.035267867 0.041565698 -0.05919963 -0.026450898 -0.011336099 0.078093134 -0.07683356 -0.0642379 -0.09572706 -0.057940066 0.0 -0.05542093 -0.015114799 0.039046567 -0.060459197
000020 27 11 08 31 ef 09 0c 62 ba 1e d8 2a 07 29 11 fc
       0.049123097 0.021412633 0.010076533 0.061718766 -0.021412633 0.011336099 0.015114799 0.12343753 -0.088169664 0.037786998 -0.050382666 0.052901797 0.008816967 0.05164223 0.021412633 -0.0050382665
000030 11 0b d8 3b f8 f3 ee 21 03 ee ee ee 0b de f5 ec
       0.021412633 0.013855233 -0.050382666 0.07431443 -0.010076533 -0.016374366 -0.022672199 0.041565698 0.0037786998 -0.022672199 -0.022672199 -0.022672199 0.013855233 -0.042825267 -0.013855233 -0.025191333
000040 da ea 18 bc bd 2a ff 25 fa dd 30 20 e2 07 f4 e5
       -0.04786353 -0.027710466 0.030229598 -0.08565053 -0.08439097 0.052901797 -0.0012595666 0.046603967 -0.0075573996 -0.044084832 0.060459197 0.040306132 -0.037786998 0.008816967 -0.015114799 -0.034008298
000050 e4 1b 1d 05 bc f2 3c ee e1 2d fc d0 34 38 da f7
       -0.035267867 0.034008298 0.036527433 0.0062978333 -0.08565053 -0.017633934 0.075573996 -0.022672199 -0.039046567 0.056680497 -0.0050382665 -0.060459197 0.065497465 0.070535734 -0.04786353 -0.011336099
000060 e5 b0 ee 26 00 3e 08 fd 19 10 ee 1b e6 0e 1b 03
       -0.034008298 -0.10076533 -0.022672199 0.04786353 0.0 0.078093134 0.010076533 -0.0037786998 0.031489167 0.020153066 -0.022672199 0.034008298 -0.032748733 0.017633934 0.034008298 0.0037786998
000070 48 e0 bd 28 fd 25 36 23 fe e4 1a fa 03 17 0f ee
       0.090688795 -0.040306132 -0.08439097 0.050382666 -0.0037786998 0.046603967 0.068016596 0.044084832 -0.0025191333 -0.035267867 0.032748733 -0.0075573996 0.0037786998 0.028970033 0.018893499 -0.022672199
000080 2f 3c e7 20 c1 26 05 00 ef 19 04 15 09 f6 1d 18
       0.05919963 0.075573996 -0.031489167 0.040306132 -0.0793527 0.04786353 0.0062978333 0.0 -0.021412633 0.031489167 0.0050382665 0.026450898 0.011336099 -0.012595667 0.036527433 0.030229598
000090 c1 25 cf d8 e1 f1 1b d9 c6 f5 d4 07 fd 2a e4 f9
       -0.0793527 0.046603967 -0.061718766 -0.050382666 -0.039046567 -0.018893499 0.034008298 -0.049123097 -0.073054865 -0.013855233 -0.05542093 0.008816967 -0.0037786998 0.052901797 -0.035267867 -0.008816967
0000a0 2a 0d f2 e2 e3 23 f3 dd f3 de 34 14 18 b1 2d f8
       0.052901797 0.016374366 -0.017633934 -0.037786998 -0.036527433 0.044084832 -0.016374366 -0.044084832 -0.016374366 -0.042825267 0.065497465 0.025191333 0.030229598 -0.09950577 0.056680497 -0.010076533
0000b0 32 0b 37 09 e5 f7 44 fa 54 25 21 19 f5 22 ef 49
       0.062978335 0.013855233 0.06927616 0.011336099 -0.034008298 -0.011336099 0.08565053 -0.0075573996 0.105803594 0.046603967 0.041565698 0.031489167 -0.013855233 0.042825267 -0.021412633 0.09194837
0000c0 f5 11 e2 df db dd af 03 fb f4 04 f7 3c fc 0a 06
       -0.013855233 0.021412633 -0.037786998 -0.041565698 -0.046603967 -0.044084832 -0.1020249 0.0037786998 -0.0062978333 -0.015114799 0.0050382665 -0.011336099 0.075573996 -0.0050382665 0.012595667 0.0075573996
0000d0 ba ea f6 09 d1 00 34 1e bc f8 16 24 29 cd 38 da
       -0.088169664 -0.027710466 -0.012595667 0.011336099 -0.05919963 0.0 0.065497465 0.037786998 -0.08565053 -0.010076533 0.027710466 0.045344397 0.05164223 -0.0642379 0.070535734 -0.04786353
0000e0 03 29 03 e4 37 1c 3d 24 48 cd 10 0f c5 3b 02 1f
       0.0037786998 0.05164223 0.0037786998 -0.035267867 0.06927616 0.035267867 0.07683356 0.045344397 0.090688795 -0.0642379 0.020153066 0.018893499 -0.07431443 0.07431443 0.0025191333 0.039046567
0000f0 d0 2f 42 2b 20 21 33 17 e4 0c 2f 14 0b 24 1b 50
       -0.060459197 0.05919963 0.083131395 0.054161366 0.040306132 0.041565698 0.0642379 0.028970033 -0.035267867 0.015114799 0.05919963 0.025191333 0.013855233 0.045344397 0.034008298 0.10076533

sequential/model/Conv_1/Conv2D i1 [1280, 1, 1, 32]
000000 00 b7 fa fd f8 2e cd 0a 0e 02 56 1a ec 16 3d 1b
       0 -73 -6 -3 -8 46 -51 10 14 2 86 26 -20 22 61 27
000010 38 f0 16 c6 2a 18 7f da 2b 35 fd 25 28 f0 ca 0b
       56 -16 22 -58 42 24 127 -38 43 53 -3 37 40 -16 -54 11
000020 fa 5d e5 17 4d 1b f7 fb 12 25 26 b7 b8 17 0f 01
       -6 93 -27 23 77 27 -9 -5 18 37 38 -73 -72 23 15 1
000030 26 07 bb fc c1 81 f8 41 4a c9 28 d0 dd 15 1f 0f
       38 7 -69 -4 -63 -127 -8 65 74 -55 40 -48 -35 21 31 15
000040 16 f8 24 81 13 df 03 51 03 c5 44 ad 39 d9 d2 69
       22 -8 36 -127 19 -33 3 81 3 -59 68 -83 57 -39 -46 105
000050 c4 ff 35 43 fe 12 ff d0 e5 22 eb 2b 46 ee af 61
       -60 -1 53 67 -2 18 -1 -48 -27 34 -21 43 70 -18 -81 97
000060 f5 f3 71 cd 09 08 33 21 d3 de 11 d6 25 15 07 db
       -11 -13 113 -51 9 8 51 33 -45 -34 17 -42 37 21 7 -37
000070 19 e9 c2 4c 7f 47 17 02 19 16 29 f9 e6 fc 05 9b
       25 -23 -62 76 127 71 23 2 25 22 41 -7 -26 -4 5 -101
000080 c8 3e 7f 25 26 22 63 f9 fa 24 cc 10 fc 47 09 d0
       -56 62 127 37 38 34 99 -7 -6 36 -52 16 -4 71 9 -48
000090 67 fe 2f fc 10 04 0d 07 0b f4 fb 4c ea 32 f3 fe
       103 -2 47 -4 16 4 13 7 11 -12 -5 76 -22 50 -13 -2
0000a0 ff de ce 8b 17 18 ff 3d 23 6e cf fa db ad e0 33
       -1 -34 -50 -117 23 24 -1 61 35 110 -49 -6 -37 -83 -32 51
0000b0 e3 e6 ec 14 33 3f dd 16 f6 12 7d 02 18 b0 5f 7f
       -29 -26 -20 20 51 63 -35 22 -10 18 125 2 24 -80 95 127
0000c0 d4 b3 0c 05 22 26 a6 25 b6 ec be e8 f2 27 b1 e9
       -44 -77 12 5 34 38 -90 37 -74 -20 -66 -24 -14 39 -79 -23
0000d0 26 5e 16 7f 2a 2e 1b bb d3 08 e7 e0 12 25 4c fe
       38 94 22 127 42 46 27 -69 -45 8 -25 -32 18 37 76 -2
0000e0 73 d5 57 af a5 e5 a0 14 e3 08 2b bb 55 e3 81 eb
       115 -43 87 -81 -91 -27 -96 20 -29 8 43 -69 85 -29 -127 -21
0000f0 df 8d 0e 43 ce d3 54 f4 2c 2b b6 0c ea 42 0f e6
       -33 -115 14 67 -50 -45 84 -12 44 43 -74 12 -22 66 15 -26

sequential/model/block_16_project/Conv2D i1 [32, 1, 1, 96]
000000 ba f2 52 ee 1a 36 e9 62 23 f2 0a 36 fc 10 c5 fa
       -70 -14 82 -18 26 54 -23 98 35 -14 10 54 -4 16 -59 -6
000010 0c ed 15 f8 f4 58 f6 c7 40 2d 39 07 c7 cc f3 32
       12 -19 21 -8 -12 88 -10 -57 64 45 57 7 -57 -52 -13 50
000020 03 18 30 3d d9 f0 ca 56 0f cf 0c e4 50 05 19 3b
       3 24 48 61 -39 -16 -54 86 15 -49 12 -28 80 5 25 59
000030 27 29 ff f7 01 14 15 06 50 fd 02 41 42 54 1a 05
       39 41 -1 -9 1 20 21 6 80 -3 2 65 66 84 26 5
000040 37 ff 08 0b c5 38 21 c7 c2 7f ec b4 1f 3b 28 0e
       55 -1 8 11 -59 56 33 -57 -62 127 -20 -76 31 59 40 14
000050 01 b3 0d e7 e6 3c 20 f6 57 29 23 fb 1d d9 d6 1f
       1 -77 13 -25 -26 60 32 -10 87 41 35 -5 29 -39 -42 31
000060 f4 08 0c 20 f2 27 f2 c8 f1 f1 04 34 1d 10 09 cb
       -12 8 12 32 -14 39 -14 -56 -15 -15 4 52 29 16 9 -53
000070 0e 14 fd ef dc 04 19 1e 27 0b 1f 15 1c 12 ec e8
       14 20 -3 -17 -36 4 25 30 39 11 31 21 28 18 -20 -24
000080 24 01 cb f2 ff 10 0c 3d c9 22 ec 19 d3 04 0f 18
       36 1 -53 -14 -1 16 12 61 -55 34 -20 25 -45 4 15 24
000090 00 26 fc 26 05 21 19 e5 ff 04 05 09 e4 16 ef 1b
       0 38 -4 38 5 33 25 -27 -1 4 5 9 -28 22 -17 27
0000a0 07 33 15 39 27 03 1c 18 41 0f 07 32 44 1b ee 21
       7 51 21 57 39 3 28 24 65 15 7 50 68 27 -18 33
0000b0 20 fa 81 cf de c8 27 0d 1c 3d 28 f7 07 05 06 05
       32 -6 -127 -49 -34 -56 39 13 28 61 40 -9 7 5 6 5
0000c0 fb cf 38 d5 c2 33 fb 32 28 0f fa 67 1c f8 ec 4e
       -5 -49 56 -43 -62 51 -5 50 40 15 -6 103 28 -8 -20 78
0000d0 49 0b 0d f8 35 0b 36 f3 e3 02 0c d6 19 21 fe 3c
       73 11 13 -8 53 11 54 -13 -29 2 12 -42 25 33 -2 60
0000e0 02 2e e1 fe 25 e7 ba d0 c7 11 55 0d 22 7b cf bb
       2 46 -31 -2 37 -25 -70 -48 -57 17 85 13 34 123 -49 -69
0000f0 7f f2 da 22 f5 e6 51 d2 47 f4 f7 15 33 fb fa fd
       127 -14 -38 34 -11 -26 81 -46 71 -12 -9 21 51 -5 -6 -3

sequential/model/block_16_depthwise_BN/FusedBatchNormV3;sequential/model/block_16_depthwise/depthwise i1 [1, 3, 3, 96]
000000 fe f9 e0 2e fb e4 5c f5 05 22 3e 23 0c a7 16 1b
       -2 -7 -32 46 -5 -28 92 -11 5 34 62 35 12 -89 22 27
000010 bf 1e da 17 0a fb 0f 1b fb ff 1b e1 e0 6e f2 10
       -65 30 -38 23 10 -5 15 27 -5 -1 27 -31 -32 110 -14 16
000020 fe fc e5 24 24 01 ef fa f6 f1 04 12 1a 07 25 07
       -2 -4 -27 36 36 1 -17 -6 -10 -15 4 18 26 7 37 7
000030 08 fb c0 00 12 c8 18 06 38 ff e3 05 08 11 37 0e
       8 -5 -64 0 18 -56 24 6 56 -1 -29 5 8 17 55 14
000040 c4 95 fc 0f 14 fa 0c 0f 0e e4 03 02 51 ff 24 1b
       -60 -107 -4 15 20 -6 12 15 14 -28 3 2 81 -1 36 27
000050 d7 c6 f0 4c f9 ea f3 05 9c 04 08 21 81 95 e3 d3
       -41 -58 -16 76 -7 -22 -13 5 -100 4 8 33 -127 -107 -29 -45
000060 7f a6 ae 11 7f f3 7f eb fe 7f 25 ce 4a 0b 1a 6e
       127 -90 -82 17 127 -13 127 -21 -2 127 37 -50 74 11 26 110
000070 a5 8e 2d 7f 53 eb f0 7f fe db 7f bc f5 7f ec 6a
       -91 -114 45 127 83 -21 -16 127 -2 -37 127 -68 -11 127 -20 106
000080 b8 fa de 7f 28 7f dc 06 81 43 09 54 1d fd 75 7f
       -72 -6 -34 127 40 127 -36 6 -127 67 9 84 29 -3 117 127
000090 41 94 41 d4 34 12 63 69 5c a3 b1 7f 68 5a 43 45
       65 -108 65 -44 52 18 99 105 92 -93 -79 127 104 90 67 69
0000a0 ca 03 28 1d 6c f4 0d 62 57 d7 f2 2a 7f 2f 7f 7f
       -54 3 40 29 108 -12 13 98 87 -41 -14 42 127 47 127 127
0000b0 d6 ca 81 45 81 da 94 24 2c 02 36 82 ad a7 e2 1f
       -42 -54 -127 69 -127 -38 -108 36 44 2 54 -126 -83 -89 -30 31
0000c0 fc fa de 33 ef fe 62 f7 14 1d 1c df 04 96 11 0e
       -4 -6 -34 51 -17 -2 98 -9 20 29 28 -33 4 -106 17 14
0000d0 8a 2f 21 14 06 00 13 15 fb ff 0e e7 ac 6a f4 11
       -118 47 33 20 6 0 19 21 -5 -1 14 -25 -84 106 -12 17
0000e0 fd f7 ed 12 24 ff f0 fc f3 32 02 10 1a fa 29 fe
       -3 -9 -19 18 36 -1 -16 -4 -13 50 2 16 26 -6 41 -2
0000f0 05 09 ba fa 0a f4 09 f9 22 00 ec fb 06 07 01 0b
       5 9 -70 -6 10 -12 9 -7 34 0 -20 -5 6 7 1 11

sequential/model/block_16_expand/Conv2D i1 [96, 1, 1, 16]
000000 eb b1 ff 7f f3 06 fc 0a e5 dc ec 93 21 77 1d 2e
       -21 -79 -1 127 -13 6 -4 10 -27 -36 -20 -109 33 119 29 46
000010 6a f2 6e ef 2a e4 7f 8a d1 1f 25 2c 93 17 f4 b7
       106 -14 110 -17 42 -28 127 -118 -47 31 37 44 -109 23 -12 -73
000020 fa f5 f2 bb 27 e5 e8 19 f0 20 25 bb 68 7f 28 0f
       -6 -11 -14 -69 39 -27 -24 25 -16 32 37 -69 104 127 40 15
000030 0d 06 bf 1c fe e7 81 e9 d8 41 f6 2d 28 72 15 25
       13 6 -65 28 -2 -25 -127 -23 -40 65 -10 45 40 114 21 37
000040 42 81 e6 ce 07 ed 0c bd f3 f2 aa cd 13 c4 1c 0d
       66 -127 -26 -50 7 -19 12 -67 -13 -14 -86 -51 19 -60 28 13
000050 ea 47 4f fe 1f 3a c5 5c a1 04 54 19 0b e6 e6 81
       -22 71 79 -2 31 58 -59 92 -95 4 84 25 11 -26 -26 -127
000060 1f c8 21 d3 12 3e b8 7b 5a 3b ca 02 ef 7f d2 7f
       31 -56 33 -45 18 62 -72 123 90 59 -54 2 -17 127 -46 127
000070 54 25 06 3a 18 81 d2 fc b0 cd fe 2f 20 bb c1 fc
       84 37 6 58 24 -127 -46 -4 -80 -51 -2 47 32 -69 -63 -4
000080 ed 15 ca cb 2b 03 36 22 7f 27 7c c9 20 c6 f7 e3
       -19 21 -54 -53 43 3 54 34 127 39 124 -55 32 -58 -9 -29
000090 f3 19 04 2a e9 81 f4 15 4d 4e f4 e7 22 c5 be 2a
       -13 25 4 42 -23 -127 -12 21 77 78 -12 -25 34 -59 -66 42
0000a0 c1 f6 c7 b4 ff eb 34 46 ff be 7f f5 fc ed c8 26
       -63 -10 -57 -76 -1 -21 52 70 -1 -66 127 -11 -4 -19 -56 38
0000b0 26 01 fd 57 12 c2 ef ef 13 d5 0d 54 81 db ec 3c
       38 1 -3 87 18 -62 -17 -17 19 -43 13 84 -127 -37 -20 60
0000c0 ef b3 53 49 25 ba c4 81 fa 50 59 0c 31 d2 97 33
       -17 -77 83 73 37 -70 -60 -127 -6 80 89 12 49 -46 -105 51
0000d0 e6 01 e5 f3 ab b2 3e fa 08 3f 68 cb 4c 06 48 81
       -26 1 -27 -13 -85 -78 62 -6 8 63 104 -53 76 6 72 -127
0000e0 f5 d0 c8 e6 df b4 ab f4 f8 e8 de 81 b4 c3 22 2b
       -11 -48 -56 -26 -33 -76 -85 -12 -8 -24 -34 -127 -76 -61 34 43
0000f0 53 7f d4 2e fd e9 06 13 0a e3 db 8b 0b 23 e3 3c
       83 127 -44 46 -3 -23 6 19 10 -29 -37 -117 11 35 -29 60

sequential/model/block_15_project/Conv2D i1 [16, 1, 1, 96]
000000 0b 08 dd da 0b 41 e8 1d 15 9f f2 03 04 2e ef f9
       11 8 -35 -38 11 65 -24 29 21 -97 -14 3 4 46 -17 -7
000010 d5 09 cd 1c e4 fc d8 1c e4 f7 f8 fe 0e d5 df 2c
       -43 9 -51 28 -28 -4 -40 28 -28 -9 -8 -2 14 -43 -33 44
000020 fd 37 11 e9 11 0c 06 ea f9 ce de eb f8 4c 0c dc
       -3 55 17 -23 17 12 6 -22 -7 -50 -34 -21 -8 76 12 -36
000030 ff 1c 1c fd e1 15 07 e5 1b f2 07 f4 11 ef f7 61
       -1 28 28 -3 -31 21 7 -27 27 -14 7 -12 17 -17 -9 97
000040 b9 cb e8 ba f1 ec 2d ef ed d0 23 1f 0e 01 db e5
       -71 -53 -24 -70 -15 -20 45 -17 -19 -48 35 31 14 1 -37 -27
000050 e1 fe 1d fc 1e fd 81 07 ed eb f0 3a 17 f5 ea 1e
       -31 -2 29 -4 30 -3 -127 7 -19 -21 -16 58 23 -11 -22 30
000060 ef ff fc f7 48 fb ed e4 14 67 f0 f7 ed 95 e7 af
       -17 -1 -4 -9 72 -5 -19 -28 20 103 -16 -9 -19 -107 -25 -81
000070 01 ec fd 06 fc 2b fe 0a fe d5 e4 f9 0b 0d 47 15
       1 -20 -3 6 -4 43 -2 10 -2 -43 -28 -7 11 13 71 21
000080 1c fa f2 e7 fc 1a f0 2b 12 11 f9 e9 09 0f 0a f5
       28 -6 -14 -25 -4 26 -16 43 18 17 -7 -23 9 15 10 -11
000090 07 e2 f8 03 b8 0f e5 17 1b dc e5 ee c6 ee fe e8
       7 -30 -8 3 -72 15 -27 23 27 -36 -27 -18 -58 -18 -2 -24
0000a0 08 08 18 02 e4 f4 81 08 1b f8 d7 13 21 27 40 25
       8 8 24 2 -28 -12 -127 8 27 -8 -41 19 33 39 64 37
0000b0 03 03 f6 11 f3 f3 29 a5 ff f0 f7 14 f6 ea c1 fa
       3 3 -10 17 -13 -13 41 -91 -1 -16 -9 20 -10 -22 -63 -6
0000c0 08 d0 22 2e da 1f da b0 be c7 2a c6 d6 ba af 09
       8 -48 34 46 -38 31 -38 -80 -66 -57 42 -58 -42 -70 -81 9
0000d0 0e 05 d3 21 44 93 a5 f4 21 ef de c8 fe 43 03 27
       14 5 -45 33 68 -109 -91 -12 33 -17 -34 -56 -2 67 3 39
0000e0 ea 00 19 2d 1f 34 1e e2 1f eb ad 02 13 cf ba 00
       -22 0 25 45 31 52 30 -30 31 -21 -83 2 19 -49 -70 0
0000f0 e8 15 f8 05 ff 05 e9 3c c8 2b e9 16 1a de de dd
       -24 21 -8 5 -1 5 -23 60 -56 43 -23 22 26 -34 -34 -35

sequential/model/block_15_depthwise_BN/FusedBatchNormV3;sequential/model/block_15_depthwise/depthwise;sequential/model/block_16_depthwise/depthwise i1 [1, 3, 3, 96]
000000 96 e9 ca de ca 92 77 06 32 0a c0 7d d0 aa cb 98
       -106 -23 -54 -34 -54 -110 119 6 50 10 -64 125 -48 -86 -53 -104
000010 b7 d7 fe e0 1c 70 43 0a da f1 eb 3b aa 36 95 16
       -73 -41 -2 -32 28 112 67 10 -38 -15 -21 59 -86 54 -107 22
000020 53 db 41 05 81 81 23 a9 d3 c3 fd cf 81 dd 65 42
       83 -37 65 5 -127 -127 35 -87 -45 -61 -3 -49 -127 -35 101 66
000030 27 4d de 09 5f e4 13 32 69 81 39 fa ac ee e4 2c
       39 77 -34 9 95 -28 19 50 105 -127 57 -6 -84 -18 -28 44
000040 fb 79 ef 4c eb f1 34 21 36 83 8b d7 96 7f 73 9d
       -5 121 -17 76 -21 -15 52 33 54 -125 -117 -41 -106 127 115 -99
000050 04 39 27 4f 08 0d 31 37 ab e5 d6 0a a5 37 74 03
       4 57 39 79 8 13 49 55 -85 -27 -42 10 -91 55 116 3
000060 0c 89 81 2e a5 0a 23 f1 27 9d e7 81 2e da a6 81
       12 -119 -127 46 -91 10 35 -15 39 -99 -25 -127 46 -38 -90 -127
000070 28 fd 24 de 9a b2 7f 7f 0a 81 f7 ee 99 f6 b5 09
       40 -3 36 -34 -102 -78 127 127 10 -127 -9 -18 -103 -10 -75 9
000080 e8 f4 3c ff 92 a8 1d 7f f9 1f 9f 9e 42 4e e6 34
       -24 -12 60 -1 -110 -88 29 127 -7 31 -97 -98 66 78 -26 52
000090 ee 45 b4 eb 26 a1 3d 71 70 63 fd 0f 36 09 b7 d9
       -18 69 -76 -21 38 -95 61 113 112 99 -3 15 54 9 -73 -39
0000a0 ff 0f f8 7f 81 96 03 6d a7 f7 70 c5 fd 07 2e 16
       -1 15 -8 127 -127 -106 3 109 -89 -9 112 -59 -3 7 46 22
0000b0 af d6 d9 27 7f 1a 7f fd f6 8c 79 e7 a1 7f 32 d7
       -81 -42 -39 39 127 26 127 -3 -10 -116 121 -25 -95 127 50 -41
0000c0 7f f3 c6 dd 06 d2 81 03 22 18 e3 64 22 c6 c6 9b
       127 -13 -58 -35 6 -46 -127 3 34 24 -29 100 34 -58 -58 -101
0000d0 f5 da b3 b8 39 7f 22 f1 db df d0 4c aa be 81 33
       -11 -38 -77 -72 57 127 34 -15 -37 -33 -48 76 -86 -66 -127 51
0000e0 81 04 0a 04 b6 97 03 c4 e4 f2 b6 7f a3 ce 50 12
       -127 4 10 4 -74 -105 3 -60 -28 -14 -74 127 -93 -50 80 18
0000f0 f3 36 fd 69 3d 3c 02 57 55 46 29 fa 1f f4 e5 01
       -13 54 -3 105 61 60 2 87 85 70 41 -6 31 -12 -27 1

sequential/model/block_15_expand/Conv2D i1 [96, 1, 1, 16]
000000 01 05 56 0b fc 81 9e 96 f3 6c 38 3f 3f e5 34 4f
       1 5 86 11 -4 -127 -98 -106 -13 108 56 63 63 -27 52 79
000010 ef ff 42 d8 52 49 0b 81 f3 16 01 47 72 b9 ce 45
       -17 -1 66 -40 82 73 11 -127 -13 22 1 71 114 -71 -50 69
000020 72 2b ac 68 8c c7 1a 6d 36 69 3e 81 a7 f8 d3 f8
       114 43 -84 104 -116 -57 26 109 54 105 62 -127 -89 -8 -45 -8
000030 ed c8 f4 0f 7f 5c de ea 34 02 0e 22 a5 09 f5 6f
       -19 -56 -12 15 127 92 -34 -22 52 2 14 34 -91 9 -11 111
000040 ef d4 2e fe 1c d0 ba 21 1a bf 17 7f 0e 16 03 68
       -17 -44 46 -2 28 -48 -70 33 26 -65 23 127 14 22 3 104
000050 48 04 af 14 32 ce 81 1b e2 35 db ef 51 ff 6d e6
       72 4 -81 20 50 -50 -127 27 -30 53 -37 -17 81 -1 109 -26
000060 64 2d 1f 29 63 e2 7f 48 d7 fc c1 39 19 64 e7 2f
       100 45 31 41 99 -30 127 72 -41 -4 -63 57 25 100 -25 47
000070 ac da 36 d7 81 0f 07 21 35 0e 00 c7 51 2c 07 b1
       -84 -38 54 -41 -127 15 7 33 53 14 0 -57 81 44 7 -79
000080 7f d1 9b 37 15 bf c6 69 22 b7 e4 03 a1 ef 34 75
       127 -47 -101 55 21 -65 -58 105 34 -73 -28 3 -95 -17 52 117
000090 3f b1 2c 05 e9 3e bd 0f 13 8c 7f e9 f7 07 1b 29
       63 -79 44 5 -23 62 -67 15 19 -116 127 -23 -9 7 27 41
0000a0 fa 3f 18 02 ff 0b 32 32 07 2a 9e ca 5e 5e 81 f0
       -6 63 24 2 -1 11 50 50 7 42 -98 -54 94 94 -127 -16
0000b0 1f e7 19 f3 e5 06 ce fa 7f c7 fc 53 13 93 23 3a
       31 -25 25 -13 -27 6 -50 -6 127 -57 -4 83 19 -109 35 58
0000c0 18 04 f1 ae 2a ee 27 d7 ef 2b e6 7f ce e9 11 26
       24 4 -15 -82 42 -18 39 -41 -17 43 -26 127 -50 -23 17 38
0000d0 5d d4 a2 59 d0 b0 e9 7f c8 58 ea 2e 55 fb 03 fa
       93 -44 -94 89 -48 -80 -23 127 -56 88 -22 46 85 -5 3 -6
0000e0 ce b0 1a f0 47 19 7f a8 d5 61 de bc 5e 40 15 b0
       -50 -80 26 -16 71 25 127 -88 -43 97 -34 -68 94 64 21 -80
0000f0 d7 99 f3 bc b8 7a f4 20 81 06 18 2a 41 30 cf d2
       -41 -103 -13 -68 -72 122 -12 32 -127 6 24 42 65 48 -49 -46

sequential/model/block_14_project/Conv2D i1 [16, 1, 1, 96]
000000 28 d0 55 14 e2 c0 40 fd fa 23 3b ed 70 ed 37 c8
       40 -48 85 20 -30 -64 64 -3 -6 35 59 -19 112 -19 55 -56
000010 0f 20 02 fd 16 21 05 e8 23 0a e6 21 0d f6 1b 1e
       15 32 2 -3 22 33 5 -24 35 10 -26 33 13 -10 27 30
000020 06 7f fa d7 f0 04 0c 25 f4 0d 9f 1b 04 ea bf 05
       6 127 -6 -41 -16 4 12 37 -12 13 -97 27 4 -22 -65 5
000030 07 24 28 05 10 ed d8 fb 35 d2 38 ea e8 d9 48 15
       7 36 40 5 16 -19 -40 -5 53 -46 56 -22 -24 -39 72 21
000040 14 0b e8 35 c4 f9 ec 0b 28 29 06 1b 34 3a ee 2a
       20 11 -24 53 -60 -7 -20 11 40 41 6 27 52 58 -18 42
000050 ec 34 21 00 1a 3c d4 61 0a ba f4 f6 9c b6 fd d3
       -20 52 33 0 26 60 -44 97 10 -70 -12 -10 -100 -74 -3 -45
000060 15 fe ae f2 f4 f6 fb c7 da 05 af d8 1c b5 b5 09
       21 -2 -82 -14 -12 -10 -5 -57 -38 5 -81 -40 28 -75 -75 9
000070 0b 20 3c d5 1b f7 1a db ed f9 2b f3 e1 fa 21 e0
       11 32 60 -43 27 -9 26 -37 -19 -7 43 -13 -31 -6 33 -32
000080 ca 19 1d ca 17 ae e5 03 f8 08 05 22 10 29 e4 f1
       -54 25 29 -54 23 -82 -27 3 -8 8 5 34 16 41 -28 -15
000090 23 b6 81 da 56 08 43 25 2b fb 22 0d f9 ce 0a f4
       35 -74 -127 -38 86 8 67 37 43 -5 34 13 -7 -50 10 -12
0000a0 17 f5 0a 09 d4 55 de 2f 17 40 04 ef 11 32 33 2f
       23 -11 10 9 -44 85 -34 47 23 64 4 -17 17 50 51 47
0000b0 1d 00 3a de dc 3b 19 c4 d1 ed f0 11 f9 fa dc fb
       29 0 58 -34 -36 59 25 -60 -47 -19 -16 17 -7 -6 -36 -5
0000c0 dc 00 1c e7 03 cf 3a 10 c2 11 dc 60 a8 13 16 f6
       -36 0 28 -25 3 -49 58 16 -62 17 -36 96 -88 19 22 -10
0000d0 d3 bb de 0c 27 fe 1a c1 07 dc e0 e5 21 c1 d8 1e
       -45 -69 -34 12 39 -2 26 -63 7 -36 -32 -27 33 -63 -40 30
0000e0 f7 bd 11 18 3e 2b 3a 29 e6 e0 c5 1b d6 f0 fa e0
       -9 -67 17 24 62 43 58 41 -26 -32 -59 27 -42 -16 -6 -32
0000f0 70 e4 bc 52 c6 f3 ea e5 fa dd fa e2 f1 2e d8 2b
       112 -28 -68 82 -58 -13 -22 -27 -6 -35 -6 -30 -15 46 -40 43

sequential/model/block_14_depthwise_BN/FusedBatchNormV3;sequential/model/block_14_depthwise/depthwise;sequential/model/block_16_depthwise/depthwise i1 [1, 3, 3, 96]
000000 63 2a 05 af fa e5 16 9b 36 08 cb 74 f7 34 81 44
       99 42 5 -81 -6 -27 22 -101 54 8 -53 116 -9 52 -127 68
000010 bf 38 e7 2d 06 fc dd cf f6 bc df 32 de 0e 7f ed
       -65 56 -25 45 6 -4 -35 -49 -10 -68 -33 50 -34 14 127 -19
000020 2a d9 b5 be 32 4e 5f 55 f0 08 fb df fb 0d b3 15
       42 -39 -75 -66 50 78 95 85 -16 8 -5 -33 -5 13 -77 21
000030 5a 10 ec 23 f4 bc 09 ef 3e db b6 04 f4 1f 29 0b
       90 16 -20 35 -12 -68 9 -17 62 -37 -74 4 -12 31 41 11
000040 3b 6f 55 21 48 fa 45 16 ff d1 e3 7b 2c 74 ed ed
       59 111 85 33 72 -6 69 22 -1 -47 -29 123 44 116 -19 -19
000050 5e 4c 81 28 81 ed 7f 67 c3 47 18 81 ed 22 49 78
       94 76 -127 40 -127 -19 127 103 -61 71 24 -127 -19 34 73 120
000060 04 53 0a 17 fd 4a fd 1c da b3 81 32 f3 7f 90 7f
       4 83 10 23 -3 74 -3 28 -38 -77 -127 50 -13 127 -112 127
000070 31 b8 16 46 3c 55 38 69 7f ea a9 77 b0 d3 b7 1e
       49 -72 22 70 60 85 56 105 127 -22 -87 119 -80 -45 -73 30
000080 df 12 7f a6 7f 74 40 4b fd 84 b2 a4 e5 7f 1d e7
       -33 18 127 -90 127 116 64 75 -3 -124 -78 -92 -27 127 29 -25
000090 7f 1d f5 0d fa 2d 7f 0d 2a 0f e1 18 7f 6d dc e1
       127 29 -11 13 -6 45 127 13 42 15 -31 24 127 109 -36 -31
0000a0 5e 4f 60 7f 7f 81 7f 0c fd e0 db 90 fa 1b 33 b1
       94 79 96 127 127 -127 127 12 -3 -32 -37 -112 -6 27 51 -79
0000b0 4d 1f 51 f5 48 f7 be da b3 c1 81 0e e1 f6 d2 ba
       77 31 81 -11 72 -9 -66 -38 -77 -63 -127 14 -31 -10 -46 -70
0000c0 81 2a dc 42 ee ff c9 5e 41 e2 ec 7f 14 08 87 24
       -127 42 -36 66 -18 -1 -55 94 65 -30 -20 127 20 8 -121 36
0000d0 40 04 63 81 f9 1d cf a9 cb fb de 42 55 1b b5 15
       64 4 99 -127 -7 29 -49 -87 -53 -5 -34 66 85 27 -75 21
0000e0 26 26 e3 c2 18 3c 19 56 0e 0d 15 c0 f8 12 be 1b
       38 38 -29 -62 24 60 25 86 14 13 21 -64 -8 18 -66 27
0000f0 5a 14 e7 16 11 21 17 81 b5 cb 3a 25 11 19 20 15
       90 20 -25 22 17 33 23 -127 -75 -53 58 37 17 25 32 21

sequential/model/block_14_expand/Conv2D i1 [96, 1, 1, 16]
000000 de 04 21 88 e0 57 64 f7 3f ba b9 02 54 7f 0b fe
       -34 4 33 -120 -32 87 100 -9 63 -70 -71 2 84 127 11 -2
000010 3f dc 0e ab 25 7f 1c b4 01 3e 30 01 02 06 6b 6f
       63 -36 14 -85 37 127 28 -76 1 62 48 1 2 6 107 111
000020 d2 d0 d2 f7 36 0a da 81 ef e6 26 37 02 05 fe f8
       -46 -48 -46 -9 54 10 -38 -127 -17 -26 38 55 2 5 -2 -8
000030 a4 f9 46 5a 4f 4c 56 8e ed 34 45 b5 13 fa 81 9d
       -92 -7 70 90 79 76 86 -114 -19 52 69 -75 19 -6 -127 -99
000040 81 36 18 1d a5 54 60 e1 30 dc e9 62 ee d5 96 87
       -127 54 24 29 -91 84 96 -31 48 -36 -23 98 -18 -43 -106 -121
000050 7f d2 40 6e 5e c2 8b 3f de 58 ca e1 34 d7 64 ed
       127 -46 64 110 94 -62 -117 63 -34 88 -54 -31 52 -41 100 -19
000060 f2 50 35 3c 81 37 eb 33 c1 07 e9 f2 fe 15 64 25
       -14 80 53 60 -127 55 -21 51 -63 7 -23 -14 -2 21 100 37
000070 02 5e ec d7 db 7f d9 f3 b9 b9 9e 72 1a ca fd da
       2 94 -20 -41 -37 127 -39 -13 -71 -71 -98 114 26 -54 -3 -38
000080 60 f0 a0 c3 6b 79 d7 38 ec 81 38 67 25 0e 07 5d
       96 -16 -96 -61 107 121 -41 56 -20 -127 56 103 37 14 7 93
000090 50 7b f5 1b 74 31 7f 7a 08 b1 93 12 6c 13 de d6
       80 123 -11 27 116 49 127 122 8 -79 -109 18 108 19 -34 -42
0000a0 f2 a6 fb 11 28 49 15 5f 35 7f 69 d7 f1 32 e7 ee
       -14 -90 -5 17 40 73 21 95 53 127 105 -41 -15 50 -25 -18
0000b0 36 fc c1 cd 2d cd 0b 14 08 10 b2 25 fb 6d 7f 3c
       54 -4 -63 -51 45 -51 11 20 8 16 -78 37 -5 109 127 60
0000c0 fa 11 fe db 81 2d 1a 04 f1 fb 11 c9 28 14 d4 d6
       -6 17 -2 -37 -127 45 26 4 -15 -5 17 -55 40 20 -44 -42
0000d0 7a 7f e8 03 68 2d 1e 09 1c 0e 05 a0 fe ee ef fa
       122 127 -24 3 104 45 30 9 28 14 5 -96 -2 -18 -17 -6
0000e0 a4 e5 e0 52 5c 09 f9 1b 0a ce f0 18 fe 26 81 f0
       -92 -27 -32 82 92 9 -7 27 10 -50 -16 24 -2 38 -127 -16
0000f0 e0 f6 16 a9 7f 3a d3 18 0b 3b cc 0a 01 07 12 0e
       -32 -10 22 -87 127 58 -45 24 11 59 -52 10 1 7 18 14

sequential/model/block_13_project/Conv2D i1 [16, 1, 1, 96]
000000 5b 05 d5 10 e9 a2 ef fb 3b fc 20 2d 01 cb bd b6
       91 5 -43 16 -23 -94 -17 -5 59 -4 32 45 1 -53 -67 -74
000010 7f f2 f4 35 b4 0b 3a e2 03 71 26 4b cf 36 33 a7
       127 -14 -12 53 -76 11 58 -30 3 113 38 75 -49 54 51 -89
000020 fb cc 07 b6 f3 e7 b4 11 0e 15 0b b0 dd f9 44 f0
       -5 -52 7 -74 -13 -25 -76 17 14 21 11 -80 -35 -7 68 -16
000030 dc 4b 14 ff 2e 32 1e fb 5f 20 32 dc f0 5f 3e c6
       -36 75 20 -1 46 50 30 -5 95 32 50 -36 -16 95 62 -58
000040 e9 dc 34 3d f4 f3 f3 42 ec 09 31 04 1f fa 3f e9
       -23 -36 52 61 -12 -13 -13 66 -20 9 49 4 31 -6 63 -23
000050 c0 08 09 1c ea e9 b1 bb c9 00 0b 3a 08 ed d6 35
       -64 8 9 28 -22 -23 -79 -69 -55 0 11 58 8 -19 -42 53
000060 13 07 c7 01 16 3f 23 17 e9 1a fb fa ee 0d 41 16
       19 7 -57 1 22 63 35 23 -23 26 -5 -6 -18 13 65 22
000070 e9 09 06 df 23 fa d7 d7 b7 f4 0a 12 14 f3 ff f0
       -23 9 6 -33 35 -6 -41 -41 -73 -12 10 18 20 -13 -1 -16
000080 18 14 fc b2 4b d9 cf ef f3 ee cb 1c 86 f8 e8 da
       24 20 -4 -78 75 -39 -49 -17 -13 -18 -53 28 -122 -8 -24 -38
000090 33 dc 07 24 51 fa 05 76 0b 09 bd ef f3 57 bc 4e
       51 -36 7 36 81 -6 5 118 11 9 -67 -17 -13 87 -68 78
0000a0 e3 d1 2d 06 16 0a 03 1a 1c 01 3a f6 22 ec f8 81
       -29 -47 45 6 22 10 3 26 28 1 58 -10 34 -20 -8 -127
0000b0 0d 0a e4 04 38 29 04 00 e2 c2 d9 06 42 12 df 28
       13 10 -28 4 56 41 4 0 -30 -62 -39 6 66 18 -33 40
0000c0 e6 df 81 00 a9 04 30 fc 27 ed 12 68 08 0f f0 3f
       -26 -33 -127 0 -87 4 48 -4 39 -19 18 104 8 15 -16 63
0000d0 49 27 d8 f9 ec 18 34 18 fb 37 26 da 00 3b 43 e7
       73 39 -40 -7 -20 24 52 24 -5 55 38 -38 0 59 67 -25
0000e0 a7 ff ca ee 14 12 22 ff 0c 17 f7 ec 11 01 10 e3
       -89 -1 -54 -18 20 18 34 -1 12 23 -9 -20 17 1 16 -29
0000f0 29 fb db 08 bd 02 e4 b3 aa ea 39 10 04 18 e0 2e
       41 -5 -37 8 -67 2 -28 -77 -86 -22 57 16 4 24 -32 46

sequential/model/block_13_depthwise_BN/FusedBatchNormV3;sequential/model/block_13_depthwise/depthwise;sequential/model/block_16_depthwise/depthwise i1 [1, 3, 3, 96]
000000 62 94 68 81 6d 2e 1e 5a c4 39 9b 39 81 a7 b3 7a
       98 -108 104 -127 109 46 30 90 -60 57 -101 57 -127 -89 -77 122
000010 3f f0 cd a9 c5 5e 15 5f ad 65 76 90 73 54 2e 5b
       63 -16 -51 -87 -59 94 21 95 -83 101 118 -112 115 84 46 91
000020 b3 da 09 2a 73 57 67 5e d0 35 9e 7e be 81 a6 b9
       -77 -38 9 42 115 87 103 94 -48 53 -98 126 -66 -127 -90 -71
000030 5b 98 0f 18 74 81 81 58 35 e3 65 55 72 9a 5f 3d
       91 -104 15 24 116 -127 -127 88 53 -29 101 85 114 -102 95 61
000040 af e7 6e 27 4a dc 22 36 6e c1 ad d3 bd ba 69 67
       -81 -25 110 39 74 -36 34 54 110 -63 -83 -45 -67 -70 105 103
000050 61 5a f1 7f 53 64 5b 51 94 dc 19 6c 81 6e 1d 60
       97 90 -15 127 83 100 91 81 -108 -36 25 108 -127 110 29 96
000060 7f 81 7f c7 7f 41 17 6f d7 43 81 1e 89 81 a5 7f
       127 -127 127 -57 127 65 23 111 -41 67 -127 30 -119 -127 -91 127
000070 50 f5 81 81 c5 e4 19 7f 81 7f 7f 81 79 48 3d 7f
       80 -11 -127 -127 -59 -28 25 127 -127 127 127 -127 121 72 61 127
000080 a0 d9 01 29 7f 7f 7f 7f c8 36 81 7f a3 2d b6 d2
       -96 -39 1 41 127 127 127 127 -56 54 -127 127 -93 45 -74 -46
000090 7f 81 2c 0b 7f 8d 23 6b 38 a1 7f 7f 72 9b 6a 3a
       127 -127 44 11 127 -115 35 107 56 -95 127 127 114 -101 106 58
0000a0 c0 e3 7f e4 52 ea 11 34 7f c5 81 d4 b6 bf 7f 7f
       -64 -29 127 -28 82 -22 17 52 127 -59 -127 -44 -74 -65 127 127
0000b0 7f 7f f1 72 66 7f 7f 65 81 bf 33 65 84 7f 29 5e
       127 127 -15 114 102 127 127 101 -127 -65 51 101 -124 127 41 94
0000c0 35 f2 13 a9 2b 11 ff 2d f7 1d d8 ff e5 d6 ca 21
       53 -14 19 -87 43 17 -1 45 -9 29 -40 -1 -27 -42 -54 33
0000d0 2c fa ad f0 e9 01 07 2c b9 1f 65 b2 62 f2 19 26
       44 -6 -83 -16 -23 1 7 44 -71 31 101 -78 98 -14 25 38
0000e0 e2 e7 d9 09 1f 48 32 5f ed 0a b0 2e e9 5e fb 16
       -30 -25 -39 9 31 72 50 95 -19 10 -80 46 -23 94 -5 22
0000f0 23 d2 c8 05 31 a7 59 34 11 81 27 2c 2e e3 24 fc
       35 -46 -56 5 49 -89 89 52 17 -127 39 44 46 -29 36 -4

sequential/model/block_13_expand/Conv2D i1 [96, 1, 1, 16]
000000 6c 39 81 35 22 c7 fe f7 58 3d ff ba b1 cb 2e 29
       108 57 -127 53 34 -57 -2 -9 88 61 -1 -70 -79 -53 46 41
000010 e0 b3 10 69 be ad cd 7f df b0 8d c5 f1 d4 f7 f8
       -32 -77 16 105 -66 -83 -51 127 -33 -80 -115 -59 -15 -44 -9 -8
000020 0b f9 cc 19 f8 81 ee 22 e5 ff ba c4 1b 11 4f 02
       11 -7 -52 25 -8 -127 -18 34 -27 -1 -70 -60 27 17 79 2
000030 5f 62 93 4a 1b dc 45 24 03 d6 fe 24 81 d8 f2 3d
       95 98 -109 74 27 -36 69 36 3 -42 -2 36 -127 -40 -14 61
000040 2f 35 8e 6b 94 f6 5a 08 a5 f8 d7 1c c2 7f 25 96
       47 53 -114 107 -108 -10 90 8 -91 -8 -41 28 -62 127 37 -106
000050 18 56 d2 c9 2e 21 5c c3 e1 fd 8e e2 81 51 44 19
       24 86 -46 -55 46 33 92 -61 -31 -3 -114 -30 -127 81 68 25
000060 e6 0d d8 4f fa ff b2 d1 de 3a 81 15 bc 0a e5 0a
       -26 13 -40 79 -6 -1 -78 -47 -34 58 -127 21 -68 10 -27 10
000070 f7 0f e6 26 66 2d 60 41 27 ed 50 0f 7f d0 32 3d
       -9 15 -26 38 102 45 96 65 39 -19 80 15 127 -48 50 61
000080 1e 04 d6 81 ed ce 0f c4 b3 73 a3 ce 97 25 48 c0
       30 4 -42 -127 -19 -50 15 -60 -77 115 -93 -50 -105 37 72 -64
000090 dc 04 12 9b 5b 62 ac a1 b3 22 81 be fb 2e fc 5a
       -36 4 18 -101 91 98 -84 -95 -77 34 -127 -66 -5 46 -4 90
0000a0 db ef 4f bd 3b 46 d3 d4 fe 34 14 bf 81 f7 e2 2b
       -37 -17 79 -67 59 70 -45 -44 -2 52 20 -65 -127 -9 -30 43
0000b0 81 1d e9 53 b2 bb a1 31 ad d3 62 ff df f5 bc 15
       -127 29 -23 83 -78 -69 -95 49 -83 -45 98 -1 -33 -11 -68 21
0000c0 e6 32 7f 31 db dd fb f9 90 e9 c5 c5 c5 c1 a4 fa
       -26 50 127 49 -37 -35 -5 -7 -112 -23 -59 -59 -59 -63 -92 -6
0000d0 7f df 50 f5 d3 db 82 20 4a 18 28 51 ed e2 35 1a
       127 -33 80 -11 -45 -37 -126 32 74 24 40 81 -19 -30 53 26
0000e0 d1 7f 45 08 09 e2 e0 17 a9 d2 07 14 75 bf 00 03
       -47 127 69 8 9 -30 -32 23 -87 -46 7 20 117 -65 0 3
0000f0 ca 15 30 d9 f0 81 f7 0f 2b 29 e2 25 0d 1d a6 ef
       -54 21 48 -39 -16 -127 -9 15 43 41 -30 37 13 29 -90 -17

sequential/model/block_12_project/Conv2D i1 [16, 1, 1, 96]
000000 f3 1b c8 13 1f af 22 04 cf eb c5 35 da 22 7f 20
       -13 27 -56 19 31 -81 34 4 -49 -21 -59 53 -38 34 127 32
000010 e7 48 e3 2b 20 be 14 2f f6 19 00 1f 3d 1b ea 03
       -25 72 -29 43 32 -66 20 47 -10 25 0 31 61 27 -22 3
000020 05 ed e4 e0 0f 06 05 fa 32 b1 07 13 f5 1a 13 10
       5 -19 -28 -32 15 6 5 -6 50 -79 7 19 -11 26 19 16
000030 12 13 03 ee 55 32 d0 f3 f4 f9 f2 30 1e 4d b0 d4
       18 19 3 -18 85 50 -48 -13 -12 -7 -14 48 30 77 -80 -44
000040 0d f9 fb 0b 21 ee 05 16 23 c6 31 fb d1 0a 0b c0
       13 -7 -5 11 33 -18 5 22 35 -58 49 -5 -47 10 11 -64
000050 ec d4 b4 d1 fe d6 2b 01 b4 fd 0e e6 36 de fa 28
       -20 -44 -76 -47 -2 -42 43 1 -76 -3 14 -26 54 -34 -6 40
000060 18 02 fc c0 e3 27 d0 fc b6 dd 44 41 24 dd cf b8
       24 2 -4 -64 -29 39 -48 -4 -74 -35 68 65 36 -35 -49 -72
000070 b3 34 f6 dd ca 34 02 d2 6f a2 e5 d5 d9 2b 0c 15
       -77 52 -10 -35 -54 52 2 -46 111 -94 -27 -43 -39 43 12 21
000080 51 c8 ef 25 d4 bc 7f 02 e7 12 24 f3 23 dd ed 06
       81 -56 -17 37 -44 -68 127 2 -25 18 36 -13 35 -35 -19 6
000090 09 33 e1 b8 cc 29 06 31 fd c8 fe fc e1 20 2f fb
       9 51 -31 -72 -52 41 6 49 -3 -56 -2 -4 -31 32 47 -5
0000a0 0d fc 1c 12 e3 07 bb 07 ee 04 0a 2f f4 f2 44 28
       13 -4 28 18 -29 7 -69 7 -18 4 10 47 -12 -14 68 40
0000b0 31 36 cd fc d8 ab cc ed 32 ea fa 02 df f8 2d 05
       49 54 -51 -4 -40 -85 -52 -19 50 -22 -6 2 -33 -8 45 5
0000c0 d6 e5 df eb e7 e9 1c 24 f8 81 d8 1c 36 d3 28 b4
       -42 -27 -33 -21 -25 -23 28 36 -8 -127 -40 28 54 -45 40 -76
0000d0 c2 2b 0b d0 4a d3 c6 ee ad a2 cd ec 11 3e 10 08
       -62 43 11 -48 74 -45 -58 -18 -83 -94 -51 -20 17 62 16 8
0000e0 23 ec fe f2 42 0b 3b 03 be f2 eb 0c 05 1e dd fe
       35 -20 -2 -14 66 11 59 3 -66 -14 -21 12 5 30 -35 -2
0000f0 e9 fa 15 f3 1c f2 1d d3 ea 05 e8 30 17 1b cb 0c
       -23 -6 21 -13 28 -14 29 -45 -22 5 -24 48 23 27 -53 12

sequential/model/block_12_depthwise_BN/FusedBatchNormV3;sequential/model/block_12_depthwise/depthwise;sequential/model/block_16_depthwise/depthwise i1 [1, 3, 3, 96]
000000 b4 36 cb 3b fd 1f 14 2c f5 ff 7f d1 c3 c3 a0 8f
       -76 54 -53 59 -3 31 20 44 -11 -1 127 -47 -61 -61 -96 -113
000010 01 13 81 d9 71 6e 58 03 81 2d 94 6d 23 3b e4 be
       1 19 -127 -39 113 110 88 3 -127 45 -108 109 35 59 -28 -66
000020 fa 24 2b d9 f6 67 06 d9 da 50 1b e0 22 a4 19 33
       -6 36 43 -39 -10 103 6 -39 -38 80 27 -32 34 -92 25 51
000030 f7 71 50 c2 3c 45 f0 e6 36 4e 40 49 7f bc 11 b7
       -9 113 80 -62 60 69 -16 -26 54 78 64 73 127 -68 17 -73
000040 6e 29 4c b2 fa 6e 1d bd a5 4f 7f 01 13 e4 34 cc
       110 41 76 -78 -6 110 29 -67 -91 79 127 1 19 -28 52 -52
000050 60 c9 33 7a 04 19 11 11 da d9 1f 81 37 e3 32 d4
       96 -55 51 122 4 25 17 17 -38 -39 31 -127 55 -29 50 -44
000060 99 69 e6 7f ff 7f a8 7f 0c 41 4b ef f6 81 d3 96
       -103 105 -26 127 -1 127 -88 127 12 65 75 -17 -10 -127 -45 -106
000070 97 3b 9b c3 7f f7 30 7f 1c 35 e9 7f 7f 7f 59 22
       -105 59 -101 -61 127 -9 48 127 28 53 -23 127 127 127 89 34
000080 c6 7f 7f ab 81 ea 33 81 3b 12 c0 d0 81 39 17 1a
       -58 127 127 -85 -127 -22 51 -127 59 18 -64 -48 -127 57 23 26
000090 81 96 7f b4 7f 7f 33 60 1b 7f 68 31 57 4f 81 84
       -127 -106 127 -76 127 127 51 96 27 127 104 49 87 79 -127 -124
0000a0 71 7f 7f dc a9 23 7f 69 b9 7f ef ff 4d 1e 00 81
       113 127 127 -36 -87 35 127 105 -71 127 -17 -1 77 30 0 -127
0000b0 7f f6 f0 57 f2 31 81 81 81 d3 4b 62 24 2f 27 81
       127 -10 -16 87 -14 49 -127 -127 -127 -45 75 98 36 47 39 -127
0000c0 ae 3f d3 1c f5 1a 52 be dd 03 6f 48 ac e0 c9 9b
       -82 63 -45 28 -11 26 82 -66 -35 3 111 72 -84 -32 -55 -101
0000d0 e4 b8 81 ce 67 37 81 ec 72 23 b0 63 13 30 eb d0
       -28 -72 -127 -50 103 55 -127 -20 114 35 -80 99 19 48 -21 -48
0000e0 fd 09 0d 7f f9 b6 e1 d1 d1 30 ec 5b 1f 1a 33 2c
       -3 9 13 127 -7 -74 -31 -47 -47 48 -20 91 31 26 51 44
0000f0 2e f9 19 ed 23 1d 02 eb 32 4f 2d 8b 44 f7 11 b3
       46 -7 25 -19 35 29 2 -21 50 79 45 -117 68 -9 17 -77

sequential/model/block_12_expand/Conv2D i1 [96, 1, 1, 16]
000000 fc a1 1d a1 27 26 b1 30 b6 ac d7 bb d6 c2 41 7f
       -4 -95 29 -95 39 38 -79 48 -74 -84 -41 -69 -42 -62 65 127
000010 02 40 11 da 7f ee ec 22 fb a3 12 0e 13 20 e9 95
       2 64 17 -38 127 -18 -20 34 -5 -93 18 14 19 32 -23 -107
000020 0a 36 ef f7 e7 e4 f0 4e 2d dd b3 2c 81 37 d0 65
       10 54 -17 -9 -25 -28 -16 78 45 -35 -77 44 -127 55 -48 101
000030 7f f2 e4 f7 1d 9a 22 cd e3 e1 37 d5 02 48 77 d4
       127 -14 -28 -9 29 -102 34 -51 -29 -31 55 -43 2 72 119 -44
000040 e5 3b 0d ee 33 1a 4c 0d ce 31 eb 0d 7f 26 ca bd
       -27 59 13 -18 51 26 76 13 -50 49 -21 13 127 38 -54 -67
000050 f1 ba 48 16 11 7f 69 d1 d4 2b 1b d8 57 c8 12 0a
       -15 -70 72 22 17 127 105 -47 -44 43 27 -40 87 -56 18 10
000060 d1 a3 f1 67 5d 98 21 a0 81 b9 c3 a7 e1 d8 af d2
       -47 -93 -15 103 93 -104 33 -96 -127 -71 -61 -89 -31 -40 -81 -46
000070 49 ec 7f da e6 d9 32 02 0b c1 ef 89 bf c7 15 44
       73 -20 127 -38 -26 -39 50 2 11 -63 -17 -119 -65 -57 21 68
000080 c1 0c 34 10 81 e7 ff b1 c6 1d de 2d 83 bd c8 0a
       -63 12 52 16 -127 -25 -1 -79 -58 29 -34 45 -125 -67 -56 10
000090 12 22 97 d0 e5 81 c1 2b bf 0c c4 db bc 09 3a 1b
       18 34 -105 -48 -27 -127 -63 43 -65 12 -60 -37 -68 9 58 27
0000a0 b2 7f c6 02 f4 ba 7b 47 e7 d7 e7 0a 2c de 1e 5d
       -78 127 -58 2 -12 -70 123 71 -25 -41 -25 10 44 -34 30 93
0000b0 a5 f8 c6 0e d7 3b da 0a 4a ed 11 4e 7f ed 00 fd
       -91 -8 -58 14 -41 59 -38 10 74 -19 17 78 127 -19 0 -3
0000c0 8f 35 7f a0 eb 4d 39 c5 e8 39 7d fa 0f ed 29 6d
       -113 53 127 -96 -21 77 57 -59 -24 57 125 -6 15 -19 41 109
0000d0 eb 90 5b 1f fa af eb 91 a5 ca 7f 8e 18 c1 1f be
       -21 -112 91 31 -6 -81 -21 -111 -91 -54 127 -114 24 -63 31 -66
0000e0 81 51 9e f8 27 0e 2f f2 eb e5 1c cc e7 27 f0 54
       -127 81 -98 -8 39 14 47 -14 -21 -27 28 -52 -25 39 -16 84
0000f0 bc 7f 24 f4 07 1c e3 e3 f5 bb 0a f2 13 dd 0b 34
       -68 127 36 -12 7 28 -29 -29 -11 -69 10 -14 19 -35 11 52

sequential/model/block_11_project/Conv2D i1 [16, 1, 1, 96]
000000 e2 01 2b e1 d8 01 0b c2 12 0e d4 3a fa 6f e0 ee
       -30 1 43 -31 -40 1 11 -62 18 14 -44 58 -6 111 -32 -18
000010 ed 05 fc 40 1a fb 11 ff f9 f8 23 af 24 31 26 fb
       -19 5 -4 64 26 -5 17 -1 -7 -8 35 -81 36 49 38 -5
000020 e3 b5 df ec e5 f5 d4 f7 26 f6 23 f3 0f f1 37 ce
       -29 -75 -33 -20 -27 -11 -44 -9 38 -10 35 -13 15 -15 55 -50
000030 13 06 f7 fc 02 d7 ff 03 f2 1f f6 ff e3 b2 d5 e5
       19 6 -9 -4 2 -41 -1 3 -14 31 -10 -1 -29 -78 -43 -27
000040 15 26 81 05 1a f0 de af 52 11 02 e5 ee 1f 23 c5
       21 38 -127 5 26 -16 -34 -81 82 17 2 -27 -18 31 35 -59
000050 33 35 06 1c 05 0e ff f9 da ff 2f 2a e1 f6 ee f9
       51 53 6 28 5 14 -1 -7 -38 -1 47 42 -31 -10 -18 -7
000060 f8 12 02 0c f9 15 09 de 08 39 f1 13 de 0c f9 0b
       -8 18 2 12 -7 21 9 -34 8 57 -15 19 -34 12 -7 11
000070 81 1a 10 17 12 ee 11 f6 06 11 dd e0 f2 05 08 4c
       -127 26 16 23 18 -18 17 -10 6 17 -35 -32 -14 5 8 76
000080 db 0e 3d 68 dc ef 11 24 ad ec f1 fc da fa 0a 44
       -37 14 61 104 -36 -17 17 36 -83 -20 -15 -4 -38 -6 10 68
000090 2a 08 f4 ba 08 18 ba 11 f2 0e 4b 9f ba 28 df 10
       42 8 -12 -70 8 24 -70 17 -14 14 75 -97 -70 40 -33 16
0000a0 0a f0 cf cd f4 f4 21 1e 13 1d 05 dd fb 3d b2 0d
       10 -16 -49 -51 -12 -12 33 30 19 29 5 -35 -5 61 -78 13
0000b0 f9 0b dc ff 01 cc ec 20 bb f6 07 e0 ec 17 00 ed
       -7 11 -36 -1 1 -52 -20 32 -69 -10 7 -32 -20 23 0 -19
0000c0 31 f7 0e d3 03 f9 f1 2b 05 12 1d ec fa e0 ef c4
       49 -9 14 -45 3 -7 -15 43 5 18 29 -20 -6 -32 -17 -60
0000d0 13 e6 f0 16 8e d6 b8 00 f7 c8 02 37 ff 05 f1 05
       19 -26 -16 22 -114 -42 -72 0 -9 -56 2 55 -1 5 -15 5
0000e0 2a da 1a c4 b8 28 17 20 1e ce 20 d3 bd 71 0c fa
       42 -38 26 -60 -72 40 23 32 30 -50 32 -45 -67 113 12 -6
0000f0 2a dc 13 18 e0 53 32 25 f0 3c 86 bb ed 06 d4 36
       42 -36 19 24 -32 83 50 37 -16 60 -122 -69 -19 6 -44 54

sequential/model/block_11_depthwise_BN/FusedBatchNormV3;sequential/model/block_11_depthwise/depthwise;sequential/model/block_16_depthwise/depthwise i1 [1, 3, 3, 96]
000000 1b 1a f0 eb 81 14 7f fd 81 f7 e7 9e 0e 5b d1 81
       27 26 -16 -21 -127 20 127 -3 -127 -9 -25 -98 14 91 -47 -127
000010 f1 0b d5 0b 54 ee 2a 23 fd 26 cc 62 15 49 c1 11
       -15 11 -43 11 84 -18 42 35 -3 38 -52 98 21 73 -63 17
000020 e8 09 f5 fc 04 de c0 1d ff 07 da 1d e1 28 69 f8
       -24 9 -11 -4 4 -34 -64 29 -1 7 -38 29 -31 40 105 -8
000030 b3 ae ba 4a c3 7f 00 98 d5 16 c6 fe fc 52 ea c7
       -77 -82 -70 74 -61 127 0 -104 -43 22 -58 -2 -4 82 -22 -57
000040 fe f8 ef df 23 f2 1a d1 1b 92 c7 67 f9 ea ef f9
       -2 -8 -17 -33 35 -14 26 -47 27 -110 -57 103 -7 -22 -17 -7
000050 f4 cf 09 ed e3 23 0d ab 0a ed fd 81 2e 91 d2 cd
       -12 -49 9 -19 -29 35 13 -85 10 -19 -3 -127 46 -111 -46 -51
000060 81 c9 2a cc db de 8a f7 31 8b 18 8e 39 7f 8b 85
       -127 -55 42 -52 -37 -34 -118 -9 49 -117 24 -114 57 127 -117 -123
000070 a2 7f 81 15 79 0f 7f 36 c4 7d 0f 4e 7f eb 7f 7f
       -94 127 -127 21 121 15 127 54 -60 125 15 78 127 -21 127 127
000080 2c 7f 7f d4 09 fa 49 81 ff e0 81 7f 81 7f 24 1b
       44 127 127 -44 9 -6 73 -127 -1 -32 -127 127 -127 127 36 27
000090 8c 81 61 66 c3 37 7f 81 81 7f 46 81 1f 7f ec 05
       -116 -127 97 102 -61 55 127 -127 -127 127 70 -127 31 127 -20 5
0000a0 7f be fc 0b 7f d5 7f c8 7f c3 bf 48 7f 41 7f e3
       127 -66 -4 11 127 -43 127 -56 127 -61 -65 72 127 65 127 -29
0000b0 fd 06 81 fb 81 7f 7f 81 7f bf 0f 34 07 81 31 24
       -3 6 -127 -5 -127 127 127 -127 127 -65 15 52 7 -127 49 36
0000c0 12 11 eb 00 88 0e f2 f7 3d eb e7 ab 16 2b c8 84
       18 17 -21 0 -120 14 -14 -9 61 -21 -25 -85 22 43 -56 -124
0000d0 ec f3 dd fe 39 f9 2c 06 f5 24 2c 5e f1 cd 11 0e
       -20 -13 -35 -2 57 -7 44 6 -11 36 44 94 -15 -51 17 14
0000e0 e4 04 ea f4 01 28 a9 26 02 e5 e6 20 d2 3e 52 f3
       -28 4 -22 -12 1 40 -87 38 2 -27 -26 32 -46 62 82 -13
0000f0 f3 c1 e0 4f c7 39 05 db dd 10 b5 df f7 55 fb ed
       -13 -63 -32 79 -57 57 5 -37 -35 16 -75 -33 -9 85 -5 -19

sequential/model/block_11_expand/Conv2D i1 [96, 1, 1, 16]
000000 33 af 11 91 d9 f7 e8 2c af b8 1a 08 7f 12 f4 de
       51 -81 17 -111 -39 -9 -24 44 -81 -72 26 8 127 18 -12 -34
000010 05 be 3a 34 de 32 11 d9 31 2b 74 08 32 1f 7f f5
       5 -66 58 52 -34 50 17 -39 49 43 116 8 50 31 127 -11
000020 2f e2 20 61 0e 15 67 38 76 81 00 3c 26 42 b2 c9
       47 -30 32 97 14 21 103 56 118 -127 0 60 38 66 -78 -55
000030 ea 27 be 31 4a 02 e1 17 7f db 04 ef 23 16 bd 00
       -22 39 -66 49 74 2 -31 23 127 -37 4 -17 35 22 -67 0
000040 1c ed 81 dc 72 e9 75 62 e5 50 1f 03 10 04 1e d2
       28 -19 -127 -36 114 -23 117 98 -27 80 31 3 16 4 30 -46
000050 08 08 2d 08 ff 81 3b cf cd 0e b4 bd af f9 c7 fa
       8 8 45 8 -1 -127 59 -49 -51 14 -76 -67 -81 -7 -57 -6
000060 e2 e7 7f 13 e7 36 43 db 60 dd 27 fd 2e fb 36 e5
       -30 -25 127 19 -25 54 67 -37 96 -35 39 -3 46 -5 54 -27
000070 7f 3e 21 d3 19 03 e0 36 bd 8a d6 5a 18 37 27 c7
       127 62 33 -45 25 3 -32 54 -67 -118 -42 90 24 55 39 -57
000080 4e d5 e2 7b c3 b3 21 f8 e8 0e 81 24 b8 9f 0f b6
       78 -43 -30 123 -61 -77 33 -8 -24 14 -127 36 -72 -97 15 -74
000090 d6 81 f5 e3 f4 18 b6 2e d0 06 e9 eb 0e cb 01 af
       -42 -127 -11 -29 -12 24 -74 46 -48 6 -23 -21 14 -53 1 -81
0000a0 fb b8 c4 42 12 16 7f e8 ab 3f f2 30 01 e3 1e df
       -5 -72 -60 66 18 22 127 -24 -85 63 -14 48 1 -29 30 -33
0000b0 be 03 ca 17 bf 4e 3b 2a 28 e0 ec e6 81 b2 5b 32
       -66 3 -54 23 -65 78 59 42 40 -32 -20 -26 -127 -78 91 50
0000c0 56 d0 81 85 de 03 0e 96 07 e7 2c 26 57 e7 ea 41
       86 -48 -127 -123 -34 3 14 -106 7 -25 44 38 87 -25 -22 65
0000d0 4b 1b f6 c8 e7 d6 de 11 14 c1 ba cf fc 01 02 81
       75 27 -10 -56 -25 -42 -34 17 20 -63 -70 -49 -4 1 2 -127
0000e0 57 e1 11 aa ff 9a cc d3 e4 a2 ce 9e d1 81 f5 63
       87 -31 17 -86 -1 -102 -52 -45 -28 -94 -50 -98 -47 -127 -11 99
0000f0 f6 6f 37 fc e5 25 dc 81 10 d7 13 18 1f dd b8 cb
       -10 111 55 -4 -27 37 -36 -127 16 -41 19 24 31 -35 -72 -53

sequential/model/block_10_project/Conv2D i1 [16, 1, 1, 48]
000000 be 15 4a a4 db de 7f f5 61 0b b0 c1 a3 31 5c b4
       -66 21 74 -92 -37 -34 127 -11 97 11 -80 -63 -93 49 92 -76
000010 c5 04 52 b8 da fd f2 00 b7 0e ac 87 c2 13 f5 27
       -59 4 82 -72 -38 -3 -14 0 -73 14 -84 -121 -62 19 -11 39
000020 95 f7 a4 16 4a 4d a9 5e 30 4a 3a 49 2b 49 ec c8
       -107 -9 -92 22 74 77 -87 94 48 74 58 73 43 73 -20 -56
000030 04 ed fc f8 01 de 2a fb 45 4e ba ed 0c 10 e4 0b
       4 -19 -4 -8 1 -34 42 -5 69 78 -70 -19 12 16 -28 11
000040 02 07 0e 20 e1 f0 07 db 81 dc 46 6c e8 be ff f2
       2 7 14 32 -31 -16 7 -37 -127 -36 70 108 -24 -66 -1 -14
000050 00 09 fa 0f 00 a7 05 08 fe e8 f4 df e6 1f 2e 05
       0 9 -6 15 0 -89 5 8 -2 -24 -12 -33 -26 31 46 5
000060 de 33 42 cb d6 e7 37 14 a5 fc ed ed e4 47 02 2e
       -34 51 66 -53 -42 -25 55 20 -91 -4 -19 -19 -28 71 2 46
000070 ed 1a 38 2a ec 3b 15 e3 7f dd 0b 4d 09 f6 20 93
       -19 26 56 42 -20 59 21 -29 127 -35 11 77 9 -10 32 -109
000080 14 1c d0 19 09 0b f2 14 d6 fc 07 22 12 a6 47 33
       20 28 -48 25 9 11 -14 20 -42 -4 7 34 18 -90 71 51
000090 3a f2 3d ce 20 10 02 14 0f e6 e6 f6 1b d7 21 2d
       58 -14 61 -50 32 16 2 20 15 -26 -26 -10 27 -41 33 45
0000a0 10 09 24 c1 1f e3 27 c6 e0 3e 26 f8 db c6 00 40
       16 9 36 -63 31 -29 39 -58 -32 62 38 -8 -37 -58 0 64
0000b0 98 00 c6 fd f0 eb fe 20 f2 04 f4 f2 ee 81 f0 f6
       -104 0 -58 -3 -16 -21 -2 32 -14 4 -12 -14 -18 -127 -16 -10
0000c0 03 b4 dd d2 11 d1 fb fd 49 f3 20 c4 2f f9 c6 13
       3 -76 -35 -46 17 -47 -5 -3 73 -13 32 -60 47 -7 -58 19
0000d0 b1 02 e1 12 e6 e7 7f f2 08 ec 03 e1 04 07 03 0f
       -79 2 -31 18 -26 -25 127 -14 8 -20 3 -31 4 7 3 15
0000e0 4f e9 db 0b 17 02 ee 18 e8 dd 13 cc fb f5 10 02
       79 -23 -37 11 23 2 -18 24 -24 -35 19 -52 -5 -11 16 2
0000f0 10 f4 14 02 f8 04 19 13 63 46 81 f0 27 0a ef f7
       16 -12 20 2 -8 4 25 19 99 70 -127 -16 39 10 -17 -9

sequential/model/block_10_depthwise_BN/FusedBatchNormV3;sequential/model/block_10_depthwise/depthwise i1 [1, 3, 3, 48]
000000 dd fe 14 f7 ca ee f6 d6 fa fb fe ab e2 02 fb ff
       -35 -2 20 -9 -54 -18 -10 -42 -6 -5 -2 -85 -30 2 -5 -1
000010 07 bc fd 01 dc ed 00 fa fa 05 ee 03 db e1 02 07
       7 -68 -3 1 -36 -19 0 -6 -6 5 -18 3 -37 -31 2 7
000020 cc 19 fb 11 e0 19 f7 0b 02 e4 03 07 e4 07 07 43
       -52 25 -5 17 -32 25 -9 11 2 -28 3 7 -28 7 7 67
000030 f0 fd 37 b7 a0 81 09 81 f8 f3 38 d2 8c 4d 05 23
       -16 -3 55 -73 -96 -127 9 -127 -8 -13 56 -46 -116 77 5 35
000040 68 37 e7 25 a9 de 60 87 1d 25 8b 26 b6 10 c2 3e
       104 55 -25 37 -87 -34 96 -121 29 37 -117 38 -74 16 -62 62
000050 8a 7f 01 1e 4c 65 81 0b 31 a5 43 65 ea f9 57 60
       -118 127 1 30 76 101 -127 11 49 -91 67 101 -22 -7 87 96
000060 db fa 03 ff d9 04 f5 e5 fc fe fd ae df f9 f9 fc
       -37 -6 3 -1 -39 4 -11 -27 -4 -2 -3 -82 -33 -7 -7 -4
000070 fc 19 f7 fe e3 ef f4 03 fb fc f4 ff f3 07 03 fa
       -4 25 -9 -2 -29 -17 -12 3 -5 -4 -12 -1 -13 7 3 -6
000080 e3 0c f7 d4 e1 05 fb 02 01 f4 f5 00 f1 01 0e 3b
       -29 12 -9 -44 -31 5 -5 2 1 -12 -11 0 -15 1 14 59
000090 b7 42 15 15 b9 f8 15 f6 0f f2 06 9a c8 06 02 08
       -73 66 21 21 -71 -8 21 -10 15 -14 6 -102 -56 6 2 8
0000a0 19 81 16 09 d9 f1 0d 04 12 0f f6 02 c0 13 d0 13
       25 -127 22 9 -39 -15 13 4 18 15 -10 2 -64 19 -48 19
0000b0 d0 f1 26 17 25 1b fe f8 08 1e 03 24 e3 0d 17 1e
       -48 -15 38 23 37 27 -2 -8 8 30 3 36 -29 13 23 30
0000c0 81 fd 7f 7f bb 83 7f de 7f 28 7f db 81 7f 81 7f
       -127 -3 127 127 -69 -125 127 -34 127 40 127 -37 -127 127 -127 127
0000d0 7f 6e 81 7f 81 81 7f 7f 7f 7f 81 7f 81 7f 81 7f
       127 110 -127 127 -127 -127 127 127 127 127 -127 127 -127 127 -127 127
0000e0 81 b0 7f 65 7f 7f 14 8d 7f 7f 7f 7f 81 15 7f 6a
       -127 -80 127 101 127 127 20 -115 127 127 127 127 -127 21 127 106
0000f0 c9 3f 06 0d ab f6 0c ec 0c e9 fe b5 d7 f1 09 00
       -55 63 6 13 -85 -10 12 -20 12 -23 -2 -75 -41 -15 9 0

sequential/model/block_10_expand/Conv2D i1 [48, 1, 1, 8]
000000 82 9a 81 45 68 ee 54 65 f4 57 3b f0 ea 81 14 b4
       -126 -102 -127 69 104 -18 84 101 -12 87 59 -16 -22 -127 20 -76
000010 26 bb ac ec 04 7f 15 14 51 b8 fa 4e 33 42 81 65
       38 -69 -84 -20 4 127 21 20 81 -72 -6 78 51 66 -127 101
000020 81 25 e4 32 48 c3 65 f3 4d 81 a9 1d a9 30 fc 1f
       -127 37 -28 50 72 -61 101 -13 77 -127 -87 29 -87 48 -4 31
000030 e2 10 11 4d cf f0 0f 7f 5a e0 23 81 8a d9 92 df
       -30 16 17 77 -49 -16 15 127 90 -32 35 -127 -118 -39 -110 -33
000040 ae 2b 45 81 26 fb 24 14 25 e1 2b de ee fd 7f f5
       -82 43 69 -127 38 -5 36 20 37 -31 43 -34 -18 -3 127 -11
000050 c8 11 bb fc 1d f4 81 02 79 24 ce 6e e2 b4 60 7f
       -56 17 -69 -4 29 -12 -127 2 121 36 -50 110 -30 -76 96 127
000060 d4 f1 06 5d ef 16 e7 7f 73 8b af 91 7f 98 a0 03
       -44 -15 6 93 -17 22 -25 127 115 -117 -81 -111 127 -104 -96 3
000070 7d da 68 e6 d8 d6 81 13 73 2f c0 2d 97 76 81 0a
       125 -38 104 -26 -40 -42 -127 19 115 47 -64 45 -105 118 -127 10
000080 07 e5 f9 20 0d 7f d2 26 f4 44 ed e6 00 81 3f 21
       7 -27 -7 32 13 127 -46 38 -12 68 -19 -26 0 -127 63 33
000090 c1 14 b6 10 fe 7f cc f7 31 cb 53 57 7f 50 f0 e1
       -63 20 -74 16 -2 127 -52 -9 49 -53 83 87 127 80 -16 -31
0000a0 df 06 f2 5e 7f 10 3e 36 46 53 de 7f e2 4f aa ff
       -33 6 -14 94 127 16 62 54 70 83 -34 127 -30 79 -86 -1
0000b0 0c 7f 06 c9 50 05 c0 4b d4 df 03 30 f9 cd 81 df
       12 127 6 -55 80 5 -64 75 -44 -33 3 48 -7 -51 -127 -33
0000c0 7f 18 b7 6c 22 be fd b2 d9 41 a3 aa 81 b5 18 20
       127 24 -73 108 34 -66 -3 -78 -39 65 -93 -86 -127 -75 24 32
0000d0 c8 ef f0 ae 14 03 d5 81 1a 81 55 7d c1 c9 95 10
       -56 -17 -16 -82 20 3 -43 -127 26 -127 85 125 -63 -55 -107 16
0000e0 15 ee dd 81 df 69 61 48 58 2a ba 8e 7f f6 59 85
       21 -18 -35 -127 -33 105 97 72 88 42 -70 -114 127 -10 89 -123
0000f0 4e 7f 18 e6 3b eb cf 26 a0 6d 01 41 81 35 41 f2
       78 127 24 -26 59 -21 -49 38 -96 109 1 65 -127 53 65 -14

sequential/model/block_9_project/Conv2D i1 [8, 1, 1, 48]
000000 3e 1a 18 ab 24 d1 d3 11 c7 12 2f 30 be 3b c2 12
       62 26 24 -85 36 -47 -45 17 -57 18 47 48 -66 59 -62 18
000010 24 1f 2b 29 db 5a ce 0e c8 c5 e2 a8 28 2b db 25
       36 31 43 41 -37 90 -50 14 -56 -59 -30 -88 40 43 -37 37
000020 78 1b 5d 70 2e f5 d2 c3 fe 23 20 06 25 81 a0 23
       120 27 93 112 46 -11 -46 -61 -2 35 32 6 37 -127 -96 35
000030 dd cb fd 1b 0d 01 5f c4 2f 11 d3 c5 29 a8 f4 50
       -35 -53 -3 27 13 1 95 -60 47 17 -45 -59 41 -88 -12 80
000040 e3 05 81 2f 1b df 0b 00 e6 e2 2a 39 32 f5 ed 00
       -29 5 -127 47 27 -33 11 0 -26 -30 42 57 50 -11 -19 0
000050 0d 13 2c 0e d2 20 58 e5 15 fc 05 1a e0 d8 32 d9
       13 19 44 14 -46 32 88 -27 21 -4 5 26 -32 -40 50 -39
000060 1c bd 19 05 4b e7 04 00 f8 10 10 e8 eb bb 07 ce
       28 -67 25 5 75 -25 4 0 -8 16 16 -24 -21 -69 7 -50
000070 0e f6 e6 74 03 e5 81 f6 f9 3f 0d 4f d1 3f 98 ee
       14 -10 -26 116 3 -27 -127 -10 -7 63 13 79 -47 63 -104 -18
000080 0e 1b 1d df ce 59 d5 42 ed 5b 3a f5 0c da 21 ef
       14 27 29 -33 -50 89 -43 66 -19 91 58 -11 12 -38 33 -17
000090 fc 07 d5 4b bd f3 27 34 2c 16 f1 0d ca ec e9 36
       -4 7 -43 75 -67 -13 39 52 44 22 -15 13 -54 -20 -23 54
0000a0 f0 d2 fd ab 33 c7 2a e8 10 e3 39 f4 47 21 02 1d
       -16 -46 -3 -85 51 -57 42 -24 16 -29 57 -12 71 33 2 29
0000b0 c1 2f f9 e5 36 0b 81 bf fe 0e ed 1d c8 0a 3b d1
       -63 47 -7 -27 54 11 -127 -65 -2 14 -19 29 -56 10 59 -47
0000c0 d3 db e7 19 06 3a d6 1a e8 5a e9 04 0a c6 ea 06
       -45 -37 -25 25 6 58 -42 26 -24 90 -23 4 10 -58 -22 6
0000d0 06 f0 b9 bc f7 fb 19 17 e4 d3 1a 65 e3 e9 f4 ff
       6 -16 -71 -68 -9 -5 25 23 -28 -45 26 101 -29 -23 -12 -1
0000e0 b5 e5 1f 7f 0f 03 21 b2 da 61 16 ee 1e d3 ee f8
       -75 -27 31 127 15 3 33 -78 -38 97 22 -18 30 -45 -18 -8
0000f0 ff b3 28 1b bf e5 5f 00 1d 12 cf fd c0 f6 7f 1b
       -1 -77 40 27 -65 -27 95 0 29 18 -49 -3 -64 -10 127 27
