IoT_Portenta/portenta_deploy/leaf_detection.tflite (tflite, 46168 bytes, 3 tensors)

sequential/y_pred/MatMul i1 [2, 18432] scale=0.0013901937 zero_point=0
000000 14 cd e9 fa 1d ee fc 02 0d 05 0a 03 cf 0f 19 0c
       0.027803874 -0.07089988 -0.031974453 -0.008341162 0.040315617 -0.025023486 -0.005560775 0.0027803874 0.018072518 0.0069509684 0.013901937 0.004170581 -0.06811949 0.020852905 0.034754843 0.016682325
000010 d3 09 0b aa 13 06 0c db 03 fd 04 02 f9 d9 ef 10
       -0.06255872 0.012511743 0.01529213 -0.11955666 0.026413681 0.008341162 0.016682325 -0.051437166 0.004170581 -0.004170581 0.005560775 0.0027803874 -0.009731356 -0.054217555 -0.023633294 0.0222431
000020 0c d3 e5 b6 03 e1 f7 02 08 12 f7 0d 1d 06 01 fc
       0.016682325 -0.06255872 -0.03753523 -0.10287433 0.004170581 -0.043096006 -0.012511743 0.0027803874 0.01112155 0.025023486 -0.012511743 0.018072518 0.040315617 0.008341162 0.0013901937 -0.005560775
000030 9b f6 08 a3 0c f7 09 d4 ed eb fd fb eb e8 0a 0c
       -0.14040956 -0.013901937 0.01112155 -0.12928802 0.016682325 -0.012511743 0.012511743 -0.06116852 -0.026413681 -0.029194068 -0.004170581 -0.0069509684 -0.029194068 -0.03336465 0.013901937 0.016682325
000040 ff d6 f8 de f7 04 f2 04 07 f4 00 f3 23 f9 07 05
       -0.0013901937 -0.058388136 -0.01112155 -0.047266588 -0.012511743 0.005560775 -0.019462712 0.005560775 0.009731356 -0.016682325 0.0 -0.018072518 0.04865678 -0.009731356 0.009731356 0.0069509684
000050 c4 00 f9 c9 02 06 04 e2 00 ff f5 00 ee f0 13 fc
       -0.08341162 0.0 -0.009731356 -0.07646065 0.0027803874 0.008341162 0.005560775 -0.04170581 0.0 -0.0013901937 -0.01529213 0.0 -0.025023486 -0.0222431 0.026413681 -0.005560775
000060 0e e1 ef f9 fb 0f f2 fc 03 fd 04 ff 17 f6 0b f0
       0.019462712 -0.043096006 -0.023633294 -0.009731356 -0.0069509684 0.020852905 -0.019462712 -0.005560775 0.004170581 -0.004170581 0.005560775 -0.0013901937 0.031974453 -0.013901937 0.01529213 -0.0222431
000070 e3 08 f9 ef 0a 07 fe d8 ef e7 f2 02 f4 00 35 f4
       -0.040315617 0.01112155 -0.009731356 -0.023633294 0.013901937 0.009731356 -0.0027803874 -0.055607747 -0.023633294 -0.034754843 -0.019462712 0.0027803874 -0.016682325 0.0 0.07368027 -0.016682325
000080 0a dd db 08 fa 0a 00 03 fc 00 0a 07 cf 02 11 00
       0.013901937 -0.04865678 -0.051437166 0.01112155 -0.008341162 0.013901937 0.0 0.004170581 -0.005560775 0.0 0.013901937 0.009731356 -0.06811949 0.0027803874 0.023633294 0.0
000090 da 01 03 0a ff 0e f2 d0 f2 f8 ef fa fd cf e9 08
       -0.052827362 0.0013901937 0.004170581 0.013901937 -0.0013901937 0.019462712 -0.019462712 -0.0667293 -0.019462712 -0.01112155 -0.023633294 -0.008341162 -0.004170581 -0.06811949 -0.031974453 0.01112155
0000a0 09 d5 f3 de 18 f6 07 15 16 f7 11 09 df 12 1d 05
       0.012511743 -0.05977833 -0.018072518 -0.047266588 0.03336465 -0.013901937 0.009731356 0.029194068 0.03058426 -0.012511743 0.023633294 0.012511743 -0.04587639 0.025023486 0.040315617 0.0069509684
0000b0 ca fa 20 f2 0d 0e 07 e9 0a ee ef f0 fb c1 e3 fe
       -0.07507046 -0.008341162 0.0444862 -0.019462712 0.018072518 0.019462712 0.009731356 -0.031974453 0.013901937 -0.025023486 -0.023633294 -0.0222431 -0.0069509684 -0.0875822 -0.040315617 -0.0027803874
0000c0 1a d2 ec d1 14 ef 10 11 10 ff 16 00 f9 ff 10 11
       0.036145035 -0.06394891 -0.027803874 -0.0653391 0.027803874 -0.023633294 0.0222431 0.023633294 0.0222431 -0.0013901937 0.03058426 0.0 -0.009731356 -0.0013901937 0.0222431 0.023633294
0000d0 c8 08 0c df 01 0a 00 eb 0c f7 fe f4 01 c9 01 0d
       -0.07785085 0.01112155 0.016682325 -0.04587639 0.0013901937 0.013901937 0.0 -0.029194068 0.016682325 -0.012511743 -0.0027803874 -0.016682325 0.0013901937 -0.07646065 0.0013901937 0.018072518
0000e0 12 d8 f6 cf 10 e3 06 09 1f f9 21 fe d6 11 0d 11
       0.025023486 -0.055607747 -0.013901937 -0.06811949 0.0222431 -0.040315617 0.008341162 0.012511743 0.043096006 -0.009731356 0.04587639 -0.0027803874 -0.058388136 0.023633294 0.018072518 0.023633294
0000f0 c1 0b 18 d4 0c 07 f7 d4 08 fb fc ee f8 b5 f5 06
       -0.0875822 0.01529213 0.03336465 -0.06116852 0.016682325 0.009731356 -0.012511743 -0.06116852 0.01112155 -0.0069509684 -0.005560775 -0.025023486 -0.01112155 -0.10426453 -0.01529213 0.008341162

sequential/conv2d_1/Conv2D i1 [32, 3, 3, 16]
000000 ea 56 d3 06 d8 2e 13 26 10 ee ab 4f 08 35 e6 d7
       -22 86 -45 6 -40 46 19 38 16 -18 -85 79 8 53 -26 -41
000010 d4 31 c2 2e f5 59 53 0f 0f b7 d6 68 28 05 ad cd
       -44 49 -62 46 -11 89 83 15 15 -73 -42 104 40 5 -83 -51
000020 fb 48 df 33 e9 10 2c 12 3e c4 e9 4b 15 e9 ef d9
       -5 72 -33 51 -23 16 44 18 62 -60 -23 75 21 -23 -17 -39
000030 ad f1 f3 1d 0e 11 3b 17 7e 0c e1 cf 0f 22 0c b1
       -83 -15 -13 29 14 17 59 23 126 12 -31 -49 15 34 12 -79
000040 a8 f8 d5 df f3 35 6a e0 3c de f4 eb 09 e9 c5 c8
       -88 -8 -43 -33 -13 53 106 -32 60 -34 -12 -21 9 -23 -59 -56
000050 c2 2e c0 ef ca 3d 66 fb 7f e8 e1 d4 dd fd cb fd
       -62 46 -64 -17 -54 61 102 -5 127 -24 -31 -44 -35 -3 -53 -3
000060 ef 5a cc dd e9 62 50 23 58 e9 de fc f5 07 e4 ca
       -17 90 -52 -35 -23 98 80 35 88 -23 -34 -4 -11 7 -28 -54
000070 f0 3e c4 02 20 7d 20 f2 7b 0c e0 e6 f5 f7 b8 e9
       -16 62 -60 2 32 125 32 -14 123 12 -32 -26 -11 -9 -72 -23
000080 c8 37 ca fa e4 5f 3c fa 1b ce c4 f1 00 f1 ee 0a
       -56 55 -54 -6 -28 95 60 -6 27 -50 -60 -15 0 -15 -18 10
000090 0b f1 0a f2 0d c3 df 27 17 2a 0b fb 0c 23 e3 62
       11 -15 10 -14 13 -61 -33 39 23 42 11 -5 12 35 -29 98
0000a0 28 0b fe 16 5a a8 bb cf c9 4c 61 05 e7 00 54 46
       40 11 -2 22 90 -88 -69 -49 -55 76 97 5 -25 0 84 70
0000b0 03 10 23 cb 38 d3 8f ee dd 0c 1c 1d 20 39 45 14
       3 16 35 -53 56 -45 -113 -18 -35 12 28 29 32 57 69 20
0000c0 6c 06 5d 2e 26 b8 8a 0e 03 f3 3f 3b 06 cf 55 4d
       108 6 93 46 38 -72 -118 14 3 -13 63 59 6 -49 85 77
0000d0 65 b2 4d f3 60 c9 a6 27 c4 08 21 41 dc d6 17 10
       101 -78 77 -13 96 -55 -90 39 -60 8 33 65 -36 -42 23 16
0000e0 38 d4 1e 02 3d f0 d7 0f ee 29 48 36 11 f5 7f 61
       56 -44 30 2 61 -16 -41 15 -18 41 72 54 17 -11 127 97
0000f0 16 c3 0a 0a 77 0a a7 21 cf 38 61 df e2 20 fe 45
       22 -61 10 10 119 10 -89 33 -49 56 97 -33 -30 32 -2 69

sequential/conv2d/Conv2D i1 [16, 3, 3, 1]
000000 11 0a 83 5f a9 22 7f 8b f1 a3 f3 a9 b9 05 e9 68
       17 10 -125 95 -87 34 127 -117 -15 -93 -13 -87 -71 5 -23 104
000010 7f d1 57 83 81 3d ae 34 3e ac 50 9c fd 6b 68 68
       127 -47 87 -125 -127 61 -82 52 62 -84 80 -100 -3 107 104 104
000020 07 ed 23 7f 7f 02 b3 28 fc 9a 56 f4 b7 f0 01 46
       7 -19 35 127 127 2 -77 40 -4 -102 86 -12 -73 -16 1 70
000030 b1 d9 c5 eb b5 81 5e fe ee b8 81 ab c1 19 c1 70
       -79 -39 -59 -21 -75 -127 94 -2 -18 -72 -127 -85 -63 25 -63 112
000040 51 6e a0 df 7f 57 da f4 78 3b fe c4 ce 81 90 32
       81 110 -96 -33 127 87 -38 -12 120 59 -2 -60 -50 -127 -112 50
000050 d3 81 62 74 74 ed a7 89 22 c2 7f e7 9d 4b 1c a2
       -45 -127 98 116 116 -19 -89 -119 34 -62 127 -25 -99 75 28 -94
000060 a1 55 c2 06 81 c9 2c 8d b4 5d 1c 5e d1 7f 15 6d
       -95 85 -62 6 -127 -55 44 -115 -76 93 28 94 -47 127 21 109
000070 fb 51 4d 6b b5 27 44 21 17 65 7f 54 13 2e 7f 27
       -5 81 77 107 -75 39 68 33 23 101 127 84 19 46 127 39
000080 db b0 8b 0a ca d5 69 07 26 14 55 c2 81 8c 1c 74
       -37 -80 -117 10 -54 -43 105 7 38 20 85 -62 -127 -116 28 116
