IoT_Portenta/portenta_deploy/model_pruned.tflite (tflite, 22576 bytes, 4 tensors)

model/pruned_functional/dense_1/MatMul i1 [2, 8] scale=0.005547629 zero_point=0
0	0x00	0.0
1	0x00	0.0
2	0x00	0.0
3	0x00	0.0
4	0x00	0.0
5	0x00	0.0
6	0x00	0.0
7	0x00	0.0
8	0x00	0.0
9	0x00	0.0
10	0x00	0.0
11	0x74	0.643525
12	0x00	0.0
13	0x00	0.0
14	0x00	0.0
15	0x81	-0.7045489

model/pruned_functional/dense/MatMul i1 [8, 2304] scale=0.00095496984 zero_point=0
0	0x34	0.049658433
1	0x00	0.0
2	0x00	0.0
3	0x00	0.0
4	0x00	0.0
5	0x00	0.0
6	0x00	0.0
7	0x00	0.0
8	0x00	0.0
9	0x00	0.0
10	0x00	0.0
11	0x00	0.0
12	0x00	0.0
13	0x00	0.0
14	0x00	0.0
15	0x00	0.0
16	0x00	0.0
17	0x00	0.0
18	0x00	0.0
19	0x00	0.0
20	0x00	0.0
21	0x3a	0.05538825
22	0x3e	0.05920813
23	0x00	0.0
24	0x00	0.0
25	0x00	0.0
26	0x00	0.0
27	0x00	0.0
28	0x00	0.0
29	0x00	0.0
30	0x00	0.0
31	0x00	0.0
32	0x00	0.0
33	0x00	0.0
34	0x00	0.0
35	0x00	0.0
36	0x3d	0.05825316
37	0x38	0.05347831
38	0x00	0.0
39	0x00	0.0
40	0x00	0.0
41	0x00	0.0
42	0x00	0.0
43	0x00	0.0
44	0x00	0.0
45	0x3b	0.05634322
46	0x35	0.050613403
47	0x00	0.0
48	0x00	0.0
49	0x00	0.0
50	0x00	0.0
51	0x00	0.0
52	0x00	0.0
53	0x00	0.0
54	0x3f	0.0601631
55	0x00	0.0
56	0x00	0.0
57	0x00	0.0
58	0x3d	0.05825316
59	0x48	0.06875783
60	0x37	0.05252334
61	0x00	0.0
62	0x00	0.0
63	0x00	0.0
64	0x00	0.0
65	0x00	0.0
66	0x00	0.0
67	0x00	0.0
68	0x00	0.0
69	0x00	0.0
70	0x00	0.0
71	0x00	0.0
72	0x00	0.0
73	0x36	0.05156837
74	0x37	0.05252334
75	0x00	0.0
76	0x00	0.0
77	0x00	0.0
78	0x00	0.0
79	0x00	0.0
80	0x32	0.04774849
81	0x00	0.0
82	0x00	0.0
83	0x00	0.0
84	0x00	0.0
85	0x31	0.046793524
86	0x00	0.0
87	0x00	0.0
88	0x36	0.05156837
89	0x00	0.0
90	0x00	0.0
91	0x00	0.0
92	0x3f	0.0601631
93	0x00	0.0
94	0x00	0.0
95	0x3e	0.05920813
96	0x33	0.048703462
97	0x00	0.0
98	0x00	0.0
99	0x39	0.054433282
100	0x33	0.048703462
101	0x00	0.0
102	0x00	0.0
103	0x00	0.0
104	0x00	0.0
105	0x00	0.0
106	0x00	0.0
107	0x32	0.04774849
108	0x00	0.0
109	0x00	0.0
110	0x00	0.0
111	0x00	0.0
112	0x00	0.0
113	0x00	0.0
114	0x00	0.0
115	0x00	0.0
116	0x00	0.0
117	0x00	0.0
118	0x00	0.0
119	0x00	0.0
120	0x00	0.0
121	0x00	0.0
122	0x00	0.0
123	0x37	0.05252334
124	0x00	0.0
125	0x36	0.05156837
126	0x32	0.04774849
127	0x00	0.0
128	0x00	0.0
129	0x00	0.0
130	0x00	0.0
131	0x00	0.0
132	0x42	0.06302801
133	0x00	0.0
134	0x00	0.0
135	0x00	0.0
136	0x00	0.0
137	0x00	0.0
138	0x00	0.0
139	0x00	0.0
140	0x00	0.0
141	0x3a	0.05538825
142	0x00	0.0
143	0x00	0.0
144	0x00	0.0
145	0x00	0.0
146	0x00	0.0
147	0x00	0.0
148	0x00	0.0
149	0x00	0.0
150	0x00	0.0
151	0x00	0.0
152	0x00	0.0
153	0x00	0.0
154	0x00	0.0
155	0x00	0.0
156	0x00	0.0
157	0x00	0.0
158	0x00	0.0
159	0x00	0.0
160	0x00	0.0
161	0x00	0.0
162	0x00	0.0
163	0x00	0.0
164	0x00	0.0
165	0x00	0.0
166	0x00	0.0
167	0x00	0.0
168	0x00	0.0
169	0x00	0.0
170	0x00	0.0
171	0x00	0.0
172	0x00	0.0
173	0x4a	0.070667766
174	0x00	0.0
175	0x00	0.0
176	0x33	0.048703462
177	0x00	0.0
178	0x00	0.0
179	0x00	0.0
180	0x00	0.0
181	0x00	0.0
182	0x00	0.0
183	0x00	0.0
184	0x00	0.0
185	0x00	0.0
186	0x35	0.050613403
187	0x00	0.0
188	0x00	0.0
189	0x00	0.0
190	0x00	0.0
191	0x00	0.0
192	0x00	0.0
193	0x00	0.0
194	0x00	0.0
195	0x3b	0.05634322
196	0x00	0.0
197	0x00	0.0
198	0x00	0.0
199	0x00	0.0
200	0x00	0.0
201	0x00	0.0
202	0x00	0.0
203	0x00	0.0
204	0x00	0.0
205	0x00	0.0
206	0x00	0.0
207	0x00	0.0
208	0x00	0.0
209	0x00	0.0
210	0x32	0.04774849
211	0x00	0.0
212	0x00	0.0
213	0x00	0.0
214	0x00	0.0
215	0x00	0.0
216	0x00	0.0
217	0x00	0.0
218	0x00	0.0
219	0x00	0.0
220	0x00	0.0
221	0x00	0.0
222	0x3a	0.05538825
223	0x00	0.0
224	0x37	0.05252334
225	0x00	0.0
226	0x00	0.0
227	0x00	0.0
228	0x00	0.0
229	0x00	0.0
230	0x30	0.045838553
231	0x3f	0.0601631
232	0x00	0.0
233	0x00	0.0
234	0x00	0.0
235	0x00	0.0
236	0x00	0.0
237	0x00	0.0
238	0x00	0.0
239	0x33	0.048703462
240	0x00	0.0
241	0x00	0.0
242	0x00	0.0
243	0x00	0.0
244	0x00	0.0
245	0x00	0.0
246	0x30	0.045838553
247	0x00	0.0
248	0x00	0.0
249	0x00	0.0
250	0x00	0.0
251	0x00	0.0
252	0x00	0.0
253	0x00	0.0
254	0x00	0.0
255	0x00	0.0

model/pruned_functional/conv2d_1/Conv2D i1 [4, 3, 3, 2]
0	0x77	119
1	0x00	0
2	0x00	0
3	0x00	0
4	0x00	0
5	0x00	0
6	0x00	0
7	0x00	0
8	0x67	103
9	0x00	0
10	0x00	0
11	0x00	0
12	0x00	0
13	0x7f	127
14	0x00	0
15	0x00	0
16	0x00	0
17	0x00	0
18	0x00	0
19	0x00	0
20	0x00	0
21	0x00	0
22	0x00	0
23	0x00	0
24	0x00	0
25	0x00	0
26	0x00	0
27	0x00	0
28	0x71	113
29	0x6b	107
30	0x00	0
31	0x00	0
32	0x7f	127
33	0x00	0
34	0x00	0
35	0x00	0
36	0x00	0
37	0x00	0
38	0x00	0
39	0x00	0
40	0x00	0
41	0x00	0
42	0x00	0
43	0x00	0
44	0x00	0
45	0x00	0
46	0x00	0
47	0x89	-119
48	0x00	0
49	0x00	0
50	0x00	0
51	0x00	0
52	0x00	0
53	0x7f	127
54	0x00	0
55	0x00	0
56	0x00	0
57	0x00	0
58	0x00	0
59	0x7f	127
60	0x00	0
61	0x00	0
62	0x00	0
63	0x00	0
64	0x00	0
65	0x00	0
66	0x00	0
67	0x00	0
68	0x00	0
69	0x00	0
70	0x00	0
71	0x00	0

model/pruned_functional/conv2d/Conv2D i1 [2, 3, 3, 1]
0	0x00	0
1	0x00	0
2	0x00	0
3	0x00	0
4	0x00	0
5	0x00	0
6	0x00	0
7	0x00	0
8	0x81	-127
9	0x00	0
10	0x7f	127
11	0x00	0
12	0x00	0
13	0x00	0
14	0x00	0
15	0x00	0
16	0x00	0
17	0x00	0
